archived_results/ddqn_big/best_online_net.bin (torch, 62927 bytes, 8 tensors)

dense1.weight f4 [128, 36]
00000000: fa2e a3bd 44f9 773d e4dc 93bd ed16 c53d
00000010: 164f 6fbd 9bb8 ffbd 88cf ad3d 3c4e 92bc
00000020: 35c9 e83d c112 47bd 9b94 6dbe bc8b a9be
00000030: af3d 86be 6877 593e 0994 23be 766a 80be
00000040: f94e 993e 1ff3 c1bd 15d8 bfbe 664e 213e
00000050: dd0a 13be f685 7abe 9abd 07be 7486 72be
00000060: a234 aabc f381 47be 9a60 71be 7a3d 0bbe
00000070: d88b 243d a12b abba 9712 793d e1b2 613d
00000080: ab39 0ebe ffc6 033e 38bd 78bd dc97 87bd
00000090: c764 8dbe b817 1abe e6cc c0be 4be4 dcbd
000000a0: 2a9f 45be ae87 76bc a000 07be c8d8 c23d
000000b0: b900 c93d 1006 6dbe 6d65 abbd 291f 493d
000000c0: 0e20 103d 6778 d1bd f078 e13d 1b84 8a3d
000000d0: 2b39 71bd 5468 43bd 73c6 25be b4a5 5abd
000000e0: 83c4 f43b 3ca4 573e decf d53b 0236 bc3d
000000f0: 97c5 a23d b0b8 dc3d 92e9 6abc 60e9 17bd
00000100: b806 033d 8838 4ebc 1979 b63d 07b9 49bd
00000110: feff 0d3d 4f67 693c 3821 fe3d 0ea5 1b3e
00000120: 36a8 553d 823f 0b3e 110f 09be 6f9f 1a3e
00000130: dd76 9e3e 22b5 103e e5ab 1abe fb41 d23d
00000140: e798 a43e fe8f 333e 34b1 33be 147f e2bc
00000150: c1e7 4c3e 7e75 953e 0a71 10be 1f80 d23c
00000160: 5379 733e b7d4 15bd f576 65be 03c5 3e3d
00000170: 0457 863e 0c9e 06bc 6502 18be 66c2 2fbe
00000180: 2473 90be a5e4 98bd 62e6 1cbe 45f2 1cbe
00000190: 0cc1 1ebe ba36 223b 860d b3bd ea38 1a3e
000001a0: 12e7 b93c bd3d 013e b324 18bd cb4c b63e
000001b0: 9b9c fe3d 4a74 3fbd b4be af3d 70a2 1b3e
000001c0: efc4 d0bc f8ab a43d ca20 4b3e dc3b cdbe
000001d0: 17c2 513e da7d b63e 7c2c bcbe 8e79 c73d
000001e0: fc5f 8ebc 3b40 4abd 4d21 39be 3912 8dbd
000001f0: 62e4 b03d 8091 3fbd dab0 9ebc c682 9d3e
00000200: 8ff8 893e 7b93 ebbd 5ce7 9f3d 5de2 58bc
00000210: ce5d 673d 3dd2 cabd a10f 2ebe 5aca 1d3e
00000220: fd3c 713e 10ba 8a3d 43b2 48be 4054 dcbd
00000230: c8cb 103e cd83 1dbb ae57 c53c d559 ce3c
00000240: e2f9 97be 1295 913e ef17 523d d1c5 be3e
00000250: 1ccb a5bc 37ae 2cbd 6a41 febd 5e67 bebd
00000260: d4f8 103b 973b 053e 8f8c c9ba bc8c 993d
00000270: db11 1fbc 3db5 e53d 5c08 94bd 5410 073e
00000280: 742d f1bd 6e18 8abd e06d 123d 4e44 93bd
00000290: ea17 553e 6d1e 0a3e 4e5b e7bc 0e47 30be
000002a0: b1f3 e2bd b3f2 073d 4630 3bbd 44a1 92bc
000002b0: 05e2 a1bd 4c45 9b3c 6c4e a9bd 95ce 61be
000002c0: 202f c73d 64c0 fcbc 5044 96bc 1c24 1c3e
000002d0: 974d 3cbe 178e 93bc e7b9 f23c 3884 2cbd
000002e0: 42d2 fd3d c502 afbd 3638 e2bd 3cfe 713d
000002f0: bae0 033e a9c5 d83d a160 69be 889b fcbc
00000300: bc74 133c 22b6 4e3e 517e 21bd a582 fb3c
00000310: 468b 55be 7730 47bd b27d 763d 1149 023d
00000320: 9e61 013e 09cf f7bc 3a2a 59be ffa8 76be
00000330: 3e68 9e3d 71c7 ff3c b9a6 f0bd 478a 863d
00000340: a987 1a3e 9f4f a33d a9c0 f93d 7338 9a3d
00000350: e450 b73d 3626 033e c51e d63d 4dc3 133e
00000360: b11b 8e3d 4a91 7d3c 1e30 9f3a 2072 dabe
00000370: 3087 323d 065f 69bd f440 bb3d caaf 80be
00000380: fee7 193d 92ed b43d e911 07be 9d4b 9dbc
00000390: 840d c83c d05c e03c ae97 213d 4df0 25be
000003a0: 80aa 9bbd a043 adbd a00d ec3d 0f3b 66be
000003b0: 81b5 d4bd d8ee 243e b07f b1bc 9519 20be
000003c0: 3593 213d 37ea f4bd 7ded 983d 6737 63bc
000003d0: b3af 74bd 4b70 e8bd 094a 1f3d 6c19 3e3d
000003e0: df4b 95bd f8a7 b0bd 8ff9 413e 3ffd 76bd
000003f0: b0d2 d4ba 5676 ebbd b559 b03c d819 a53b
-0.079679444 0.060540453 -0.07219866 0.09623513 -0.05842503 -0.124863826 0.08486849 -0.01785957
0.11366502 -0.04860187 -0.2320122 -0.3311442 -0.26218936 0.21236956 -0.1597444 -0.25081223
0.29943064 -0.094702 -0.37469545 0.15752563 -0.14359613 -0.24465165 -0.13255921 -0.23684102
-0.02077705 -0.19483165 -0.23572007 -0.1359767 0.040172428 -0.0013059267 0.060808744 0.055102233
-0.13889186 0.1286888 -0.060727328 -0.06620762 -0.2761595 -0.1504811 -0.37656325 -0.10785731
-0.19298998 -0.015046997 -0.13183832 0.09514004 0.09814591 -0.23146844 -0.08368955 0.049101982
0.03518682 -0.10228043 0.11009395 0.06763478 -0.05889241 -0.047706917 -0.16188984 -0.053380683
0.007469715 0.21058744 0.006525024 0.09189989 0.079478435 0.10777414 -0.014337914 -0.037087798
0.03198883 -0.01258672 0.08909816 -0.04924872 0.03466796 0.014245822 0.1240868 0.15199682
0.05216237 0.13598445 -0.13384654 0.15099882 0.3095006 0.14131597 -0.15104635 0.10266491
0.32147905 0.17535397 -0.17548066 -0.027648486 0.20010282 0.29191202 -0.14105621 0.025695859
0.2377675 -0.036579814 -0.2240866 0.046574604 0.26238263 -0.008216392 -0.14844663 -0.17164001
-0.28212845 -0.074654855 -0.15322259 -0.15326793 -0.15503329 0.0024751858 -0.08742814 0.15060773
0.02269319 0.12621208 -0.037144374 0.35605463 0.12432214 -0.04674176 0.085812956 0.15198684
-0.02548453 0.08040613 0.19836727 -0.40084732 0.20484196 0.35642892 -0.3675269 0.097399816
-0.017379753 -0.04937766 -0.1807911 -0.06888241 0.086373106 -0.04676962 -0.019371439 0.30763835
0.26947448 -0.11502739 0.078078 -0.013237563 0.056485943 -0.09903381 -0.1699815 0.15409222
0.23558421 0.0677377 -0.19599251 -0.10758257 0.14140236 -0.0024034858 0.02408966 0.02518932
-0.29682833 0.28434044 0.051292356 0.37260297 -0.020238452 -0.04215833 -0.124148205 -0.092970595
0.002212097 0.13011013 -0.0015376973 0.07497546 -0.009708847 0.11216209 -0.07228157 0.13189822
-0.117762476 -0.06742941 0.035749316 -0.071907625 0.20809904 0.13488169 -0.02824178 -0.17214605
-0.11081637 0.03319044 -0.045700334 -0.017899163 -0.07904438 0.018953942 -0.08266911 -0.22051461
0.09725785 -0.030853458 -0.01834312 0.1524815 -0.18388973 -0.01801209 0.02962966 -0.04211828
0.12393619 -0.0854545 -0.11045878 0.059080347 0.12878695 0.10584576 -0.22790767 -0.030835882
0.009 0.20186666 -0.039427105 0.030701945 -0.2085391 -0.048630204 0.060178466 0.031807963
0.12634894 -0.03025009 -0.21207514 -0.24087904 0.07734726 0.03122303 -0.1175055 0.06569343
0.15090813 0.07974171 0.1219495 0.07530298 0.089509755 0.12807545 0.104550876 0.1442997
0.069388755 0.015476534 0.0012145077 -0.42665195 0.043585956 -0.056975387 0.09143248 -0.25134116
0.03757476 0.088343754 -0.13190426 -0.019201094 0.024420507 0.027388006 0.039451294 -0.16204949
-0.0760088 -0.08460164 0.11526036 -0.22483467 -0.103861816 0.16106737 -0.021667331 -0.15634759
0.03944703 -0.119587354 0.07467172 -0.013868189 -0.059737872 -0.11349543 0.038888965 0.046410963
-0.07289862 -0.086257875 0.18942855 -0.060300108 -0.0016237106 -0.1149718 0.02152715 0.005038481

dense1.bias f4 [128]
00000000: f6fe c13d a00a 0ebf 68f9 923e 21e5 7ebe
00000010: fffb 53be 7bff 2fbe 88a0 00be 8198 463e
00000020: b5e9 15be ec4a 7f3e b5b1 2f3e 26fd 87be
00000030: 39c6 fbbd 99e7 90be 4fcb b8bc 709a 0abc
00000040: 7346 e2bb b575 b8be a3bb 89bd 491c 62be
00000050: 596e a5be 6e2f b73e d95b 00be 0851 bcbe
00000060: 726d b6be 3d93 c33e bd9e b0bc e47f 87be
00000070: 7ee8 81bc 3245 14bf 4bed b53e ca3e 85bd
00000080: 4271 eabd 24ac 103e 4109 7bbe c5d7 1c3e
00000090: c291 3dbe 72e0 893d f080 55be 894d 523c
000000a0: 185d 4cbe 979e d1be 15f0 223f 9d5e ca3e
000000b0: 2808 4cbe 6ad1 e6ba 84f7 af3e aa08 91be
000000c0: 62b0 c73e 6f3f 86be 8454 f1bd 0ab4 d6bd
000000d0: afc9 72be c6df e53d de75 cc3e e8a7 c9bd
000000e0: 7cfc 023e 2c8c a3be ee91 d33d 5bee 7abc
000000f0: db4a e43e 1b67 c1be e143 e0bd 8423 8839
00000100: e416 1ebc f11c 4c3c 24b5 933e ad5d 2a3d
00000110: e34b 3fbe 2fee aabe cf44 a83e 4154 5abe
00000120: 6846 823e 4799 7b3e 0de5 4ebe 6a04 b33e
00000130: 5ae9 c23c 2508 32bd 8ed0 ae3e cecb 9f3c
00000140: cdb1 183e 7673 533e 3706 063e cc11 d0be
00000150: 84e2 cabd 5931 ec3d 6339 42be fa02 bc3e
00000160: 0796 27be c42b 2c3d f690 b5be 98d9 013f
00000170: 39aa 4b3e 4241 8bbd 0e76 863e 1e44 29be
00000180: 9df6 f53d d7f4 f13d 4e4d 1abf 38f3 cc3e
00000190: 3dc6 1f3e 95d7 8bbd 4f3a 943e b4fd 8f3d
000001a0: c1c3 c93e 43b9 d03e 786a 09be 28f5 ad3e
000001b0: e1b4 6abe c9b3 f4be 995b 023f 8bdd 6f3e
000001c0: 889e 71be 7e78 5fbd c0cb d33e b899 9bbe
000001d0: 8f49 233e 4e86 333e a8c4 8f3e db2e 06be
000001e0: 3575 843e f047 72bd a4b4 443e 5f7e ef3d
000001f0: c83d 9d3e ad29 dcbb 346c ef3e d283 adbe
0.09472458 -0.5548496 0.28705907 -0.24892093 -0.20701598 -0.17187302 -0.12561238 0.19394113
-0.14639933 0.24930924 0.17157634 -0.26560324 -0.12293667 -0.28301695 -0.022557883 -0.008459672
-0.006905371 -0.36027303 -0.06725242 -0.22081102 -0.3231075 0.35778373 -0.12535037 -0.36780572
-0.35630375 0.3819827 -0.021560067 -0.2646476 -0.015857931 -0.57918084 0.35532603 -0.06506117
-0.114473835 0.14128166 -0.24515249 0.15316685 -0.18512633 0.06732263 -0.20849967 0.012835869
-0.19957387 -0.40941307 0.63647586 0.3952531 -0.19924986 -0.0017610018 0.34368527 -0.28326923
0.39001757 -0.2622027 -0.11783698 -0.104835585 -0.23709749 0.11224322 0.39933676 -0.09846479
0.12791628 -0.3194288 0.10330568 -0.015315617 0.4458836 -0.37773976 -0.10950447 0.00025966403
-0.009649012 0.012458072 0.28849137 0.041593242 -0.18681292 -0.33384845 0.32864997 -0.21321203
0.2544434 0.2457019 -0.20204563 0.34964305 0.023792911 -0.0434648 0.3414349 0.019506361
0.14911576 0.20649514 0.13088308 -0.40638578 -0.09906486 0.1153285 -0.18967204 0.3672102
-0.16365825 0.042033926 -0.3546216 0.50722647 0.19889154 -0.06799556 0.26261944 -0.16529891
0.120099284 0.118142776 -0.6027421 0.4002931 0.15602966 -0.068282284 0.28950736 0.07030812
0.3940716 0.40766343 -0.13419521 0.33976102 -0.22920562 -0.47793415 0.50921017 0.23424356
-0.23595631 -0.05455827 0.41366386 -0.30390716 0.15946029 0.17531702 0.28079724 -0.13103811
0.25870672 -0.059150636 0.19209534 0.11694025 0.30711198 -0.0067188353 0.4676224 -0.33889633

dense2.weight f4 [64, 128]
00000000: b378 b3bb 7b21 3d3e 662e a8bb e902 b43d
00000010: 024c 26bd 6b7e 703e 32fa 9e3d 01d8 ac3d
00000020: c20a 7f3e 2d78 f13c dfca fc3b b3b5 d23c
00000030: 077e e0bc cd27 663d b717 68bd 898b 813d
00000040: 5d85 bbbd 9a58 c73d aa14 9ebd 55bc 093d
00000050: 8de9 553e c7b9 94bd e66c e8bd 3fca 2ebd
00000060: e2cc fe3c 8fa8 64be 9a02 253e cf63 763d
00000070: ff03 903b 375f ab3e c256 20bd aee8 973d
00000080: 3781 02bd d677 1ebc 0452 263d ecad 63bd
00000090: d343 cb3c d370 dbbd 9561 30bd f88f 1c3d
000000a0: ef47 dabd 2fd7 033d 82ae 86be b0a6 20be
000000b0: 12f3 ab3d 5643 f9bb a89f dcbb 536c 8e3d
000000c0: 7e6e dfbd a714 71bd 28e3 b53c c0d6 7b3e
000000d0: fddf 2fbd f6ef a1bc d02f 28be 40ac 8f3d
000000e0: f99f e63d e355 de3d 26dc faba 10e6 063e
000000f0: d2dc 09be 5d96 c83e 81c8 26bc f58a 04be
00000100: df6b 94be d68b 81be 1c58 01bd a553 b83b
00000110: f0da 7a3d 8dc0 353e 6c4d 58be fba5 8e3d
00000120: 9e91 7b3d 91cd 583d 67da c5bc 0760 14be
00000130: dd16 21be dda9 13ba d4b3 82bd 680d 07be
00000140: dd37 78be ade7 9e3a 22eb b83b 98f5 adbd
00000150: 7d95 f3bd 4556 2b3c a075 9f3d 33e2 8cbd
00000160: 9544 bcbb 8643 11be 7ffb 483e 3d5f 36be
00000170: f07c 143c 31dc fd3d f9ef 3f3d 362a cb3d
00000180: a6c5 b73c f9c7 6fbb 1ebc 373e 7237 adbe
00000190: c7a9 053e 4878 8f3c 7ac7 08bd 1bf4 913c
000001a0: 075e 9bbc 9c67 66be 295a 6ebc 06ca 85bc
000001b0: 9f8d 02bd ead4 8a3e 77a8 0ebe e2d4 d2bd
000001c0: c2c9 943d 8aa9 f93c a4c5 13be 9ec5 173e
000001d0: 19e6 dfbd 47f3 33bb cebe 29bd a243 a13c
000001e0: be5d f5bb 4e81 6bbe fe8d 813d 34a6 e3bd
000001f0: 09dc 94bd 4fa5 f4bd 4813 afbd 0cb4 013e
00000200: 73c6 2abe e224 15be 3827 b4bc a6d7 23bd
00000210: a672 7b3d 094e 213d 60d6 61bd 891f cf3d
00000220: e8b4 26be 6a72 1e3d 2c93 dcbd 072c 3abd
00000230: eca3 06be ffce 043c df8b 74be 1a6d 1c3d
00000240: b58c 603d c422 38bd 64c4 57bc eeac e53c
00000250: 5a85 18bd 8328 dd3c 9e47 d63b 316e b8bc
00000260: f468 cabd e075 fe3b aeec ebbd f6ea 01bd
00000270: f37f b8bd b1fd 89bd be44 3f3d 8c33 143e
00000280: 30f1 36be fde4 e8bd de51 813d fcf5 7dbd
00000290: 1686 59bd 06ab 043d f0c5 00be 499c e53d
000002a0: e4ae 76be 08e0 96bd 731f dc3d 7d0e a23c
000002b0: d1af 123e 3d4f 70be bef3 d33d 07a4 ab3c
000002c0: 509d 85bd e94a 04be ad1c 2cbe e208 2b3e
000002d0: 7fb1 eabd 32f3 8f3b 40bc d33c 1e38 5a3e
000002e0: 33d9 bf3d 3af6 84be dd64 463d bb8a 34bd
000002f0: 723a 8bbd 57c6 483c bb90 113d 8cce fdbd
00000300: 7bcf b4bd 205f 603d 5731 a23d 334c a1bd
00000310: 0377 7a3d 48b3 c3bc d7e0 abbd 4328 423c
00000320: 75d5 0d3d 6b7f 3d3e d362 53bd f80a 39bc
00000330: c6df d53d 5f35 d8bc 8331 c83d 1430 4d3c
00000340: d49c 863d af0b 0ebe 5056 09bd 3702 4bbe
00000350: c4f2 cfbd 1eb6 56be 8802 acbd 2a02 2e3d
00000360: 2367 b8bc 4888 9b3b b0c3 2d3d 9611 d73d
00000370: 96e0 afbc da9f 033e 895c 873d 3d65 2e3e
00000380: fe92 213d 07ac fc3d 9c9a 343e 6681 b33d
00000390: 24dd a53d 52cc 7fbc fb38 3f3e 898c 9a3c
000003a0: e7e5 a2bd a550 983d ac9e 103d cb0c b2bd
000003b0: 1b1d a5be 2362 0cbc 0019 ad3d 7d38 993e
000003c0: 314e c63d 3708 84ba 0de6 c63d 29c3 69bd
000003d0: 4462 7abd 59d7 b43a aaff 41bc 9eed 57bd
000003e0: 8b66 033e e137 dc3c 6c2c 663d 3a9c 8e3c
000003f0: e870 2a3e c379 11bd 412d a53d 11ae c2bd
-0.005477035 0.18469803 -0.0051324842 0.087896176 -0.04059983 0.23485725 0.07762565 0.08439637
0.24906448 0.02947625 0.007714614 0.025721407 -0.027403845 0.0561903 -0.05666324 0.06325442
-0.091562964 0.09733696 -0.07718785 0.033626873 0.20889874 -0.07261997 -0.11348896 -0.042673346
0.031103555 -0.22329925 0.16114274 0.06015378 0.0043950076 0.3347108 -0.03914524 0.07417427
-0.03186151 -0.009672126 0.04060556 -0.055585787 0.024812615 -0.10714879 -0.04306181 0.038223237
-0.106582515 0.032187637 -0.26305014 -0.15688586 0.08395971 -0.007606904 -0.0067328997 0.06954255
-0.109097466 -0.058857586 0.022203043 0.2459364 -0.04293822 -0.019767743 -0.16424489 0.07015276
0.11260981 0.10856225 -0.0019139096 0.131737 -0.13463143 0.39177218 -0.01017964 -0.12943633
-0.2898855 -0.25302 -0.03157817 0.0056252056 0.06124395 0.17749234 -0.21123284 0.06965252
0.06141817 0.05293042 -0.024151994 -0.14489757 -0.15731378 -0.00056329166 -0.06381956 -0.13188708
-0.2424006 0.0012123488 0.0056432644 -0.08494109 -0.11893747 0.01045758 0.07786107 -0.068790816
-0.0057454803 -0.14185914 0.19627188 -0.17809768 0.009062991 0.12395514 0.046859715 0.099201605
0.022433113 -0.00365877 0.17942855 -0.33831364 0.13053046 0.01751341 -0.03339336 0.017816594
-0.018965734 -0.22500461 -0.014547863 -0.016331684 -0.03187334 0.27115566 -0.13931452 -0.102945104
0.07265045 0.03047635 -0.14430863 0.14821479 -0.109325595 -0.0027458237 -0.04144173 0.01968557
-0.0074879816 -0.22998545 0.06325911 -0.11115685 -0.07268531 -0.119455926 -0.085485995 0.12666339
-0.16677265 -0.14564851 -0.021991357 -0.04000058 0.061388634 0.03938106 -0.055136085 0.10113437
-0.16279948 0.038683333 -0.10770258 -0.045452144 -0.13148469 0.008105992 -0.23881482 0.038189985
0.05482169 -0.04495503 -0.013169382 0.02803656 -0.03723655 0.026996857 0.006539299 -0.02251348
-0.098832995 0.0077655166 -0.115197524 -0.031718217 -0.090087794 -0.06737841 0.046696417 0.14472789
-0.17865443 -0.11371801 0.06314443 -0.062002167 -0.05310639 0.032389663 -0.12575507 0.1121145
-0.24090153 -0.07366949 0.10748186 0.0197823 0.14324881 -0.23467727 0.103492245 0.020952238
-0.065241456 -0.12919201 -0.16807814 0.16702607 -0.11459636 0.004393005 0.0258466 0.2131047
0.09367599 -0.25969106 0.048436034 -0.044077616 -0.06798257 0.012254319 0.035538416 -0.12392911
-0.08828636 0.05477822 0.07919567 -0.07875862 0.061148655 -0.023889199 -0.08392494 0.011850419
0.034627397 0.18505637 -0.051607918 -0.011294119 0.10443072 -0.026392637 0.097750686 0.01252367
0.06572881 -0.13871644 -0.03352958 -0.19825064 -0.10153726 -0.2096791 -0.0839892 0.042482533
-0.022510117 0.0047464706 0.04242295 0.10501401 -0.021469396 0.12853947 0.066094466 0.17030807
0.039446823 0.12337499 0.17637104 0.08764915 0.0809882 -0.015612679 0.1867408 0.01886584
-0.07954007 0.07437257 0.03530757 -0.08693846 -0.32248768 -0.0085683195 0.08452034 0.2992591
0.096828826 -0.0010073249 0.097118475 -0.057070885 -0.06112887 0.0013797089 -0.01184074 -0.052716844
0.12832086 0.026882114 0.056194708 0.017408479 0.16644633 -0.03551651 0.08065272 -0.09505857

dense2.bias f4 [64]
00000000: f2cb 3fbd 5578 263e 448b 383e a4b1 c43d
00000010: 3108 6ebb 5c8a 283d b8ff 7bbd fc47 26bd
00000020: 0d97 2f3e 92c5 cebd ee74 553e 2669 8a3d
00000030: df1c a53d eb9f 12be 7e97 f4bb 8ec1 b23d
00000040: 6305 f93d 5933 fb3c de97 1abb 3b85 d6bd
00000050: 03b2 a03d 056b 98bd cdcc 23bd c6eb c33d
00000060: 2570 333d 34f8 623e 1f79 e13c 88bc 39bd
00000070: 561b 963e b746 0abe 8e3d 72bd c9c0 043e
00000080: 6478 b1bc 75b2 913d 0311 7a3d c32f 0fbe
00000090: 63a4 15bd 5c27 d2bd ae8f 3cbe 470c ee3d
000000a0: b745 843c 07b5 113c 3a1d 4f3d 31e8 39be
000000b0: 3c9d 3f3c 61e9 20be e3a5 e8bc 568b 953d
000000c0: d1fd 3d3d 5155 54bd 5d1f 1dbd 8643 8e3e
000000d0: 6bde 19be 45c0 f93d 111a 123e 8cbc 2fbd
000000e0: b1a9 45be d526 0e3e 650d 403e b97a 233e
000000f0: a58f 9fbd 1385 a8bd 625f debb 56b9 3cbe
-0.046825357 0.1625684 0.18021876 0.09604195 -0.00363208 0.041147575 -0.06152317 -0.040595993
0.17147465 -0.10096277 0.20845386 0.06758337 0.08062147 -0.14318816 -0.0074643483 0.08728324
0.121592306 0.030664133 -0.0023589055 -0.104746304 0.07846453 -0.07442287 -0.039990235 0.095664546
0.04380812 0.22164994 0.027523575 -0.045345813 0.2931773 -0.13503538 -0.059140734 0.12964167
-0.021663852 0.07114116 0.06105138 -0.13983063 -0.036533725 -0.102614135 -0.18414184 0.116234355
0.016146524 0.008893258 0.050564982 -0.1815498 0.011695202 -0.15714027 -0.028399413 0.07301967
0.046384636 -0.051839177 -0.03835999 0.2778589 -0.15026252 0.12194876 0.14267756 -0.04290442
-0.19303013 0.13882 0.1875511 0.15964784 -0.0779107 -0.08228507 -0.006786273 -0.18430075

dense3.weight f4 [32, 64]
00000000: 3fab 473e 9d48 473d a935 9a3d 9ded b7bd
00000010: d735 0abe 03f3 633e 2e1c b93d 754d f2bd
00000020: 1334 2d3e be02 88be a033 6dbb 2057 d63d
00000030: 7de6 4f3e b5da 143d 1c6f 6fbe 0c5a 3b3d
00000040: fcac 5d3d 67fd 13be 7ec9 a63c 716c 33be
00000050: acb5 2c3e 13e0 a0bd b2be 3abd 28a3 49be
00000060: 4f85 34bd ef4f 90bc 22b3 ab3d ec8a 44be
00000070: f38b 2dbe ed85 583e 3b32 efbd 9974 e53c
00000080: 39b3 343e d92e 8ebe 864d 43bd a5b5 cc3c
00000090: b61e 933d bbaa 43be 11d5 513d 4bf5 a8be
000000a0: 600e 7e3d a49e 2bbd 129f 4bbd 5b8f 84bd
000000b0: b73f 793d e8a9 9dbd e400 923d 4ee7 55be
000000c0: 9273 573d 4381 b63c b30f 7b3e 64fe 103d
000000d0: 4c59 31be 3e91 8d3e 9387 433b 9e41 3b3e
000000e0: 9813 8abd 1f4b 243d 8144 a7bd 5088 5abd
000000f0: 8b5e e83d 3271 0c3e e293 3a3d c0f5 ebbd
00000100: 54d3 323e 39ff 7f3d fed0 443d c759 83bd
00000110: 5cfc b8be d006 593e 7fca aa3d e3b1 6fbd
00000120: 3d0c 0e3e c6b9 00be dd0e 253e bcf5 5a3e
00000130: 4b5f 00bc d702 54be fbd1 12be 91c0 213d
00000140: ad8d 67bd 0517 f3bd b1bc 863d 79b9 853d
00000150: 4c98 3e3e 4c50 38be 5270 50be dff6 f6bc
00000160: e82e 25be 8e82 303e 0bc9 51bc ea96 91be
00000170: 1d5a 95be c60c 803e b73e 53be cab8 f33d
00000180: e9c1 263d e8d7 ffbd 5120 663e d23a 863e
00000190: 9401 803e 08b1 8a3d b750 663e 7949 79be
000001a0: b9c0 c93d 806d 27be 2744 1abe 624d 2cbe
000001b0: 9fb7 e2bc 22cb 58bc fc78 20be 324e ad3d
000001c0: ee8e e53e 95d9 123d c52e 5c3e 323c ce3d
000001d0: 5305 3bbe 4c5d 21bd 7bab 1b3d 41ca 813c
000001e0: 3e8f 613d 6230 08bd 0a0b 87be 8ec7 193e
000001f0: 3d9c 663d 9dcf e53d f0bd 0e3e a7fd 37be
00000200: 90f3 ac3e 3d88 26be 4be3 5a3e 7062 0d3f
00000210: 49a8 1cbe ad2d e13d 9bee 613d 0137 88bb
00000220: 2ba5 a4bb 5da1 92be c5b6 c2bd d9e2 523e
00000230: 1d6e 213e baef 55bf 86d6 ac3d 29e3 bbbb
00000240: 3d63 953e efef 653e 7fd1 2cbe 5007 85be
00000250: b4a0 143d 0e31 f7bd 1de0 023f e466 3bbc
00000260: 0d1f 4f3d 9284 983e 3e84 ebbe cc29 25be
00000270: 0d3b 193e e9ab 243e 7cb3 1cbc ed18 3a3c
00000280: a546 183e a3eb 813d 4a7f f93d bbeb 26be
00000290: 9e5c 02be 744b debe 713d 54be 2de5 af3d
000002a0: 2ae8 efbd 707e a63d 79a9 063e 7413 59be
000002b0: 4d3a 44bd c6b1 5abe eeaa b93d d6ab 633e
000002c0: 6bd0 9f3e 9cf7 50bd 1694 163e 89cd a93d
000002d0: c00f 0d3e 14ae bc3d 53ff 03be 2e32 e73d
000002e0: 69a4 9e3c 5df2 423e 44e6 97be b0d4 023e
000002f0: 12b8 14be 839c 69bd ead4 1a3d 47ce 85bd
00000300: 6e1b 0e3e 81ba 613e 4c9b 6e3e 7594 54bd
00000310: 5ffc 9dbd 88a9 61bd 8dc7 9f3b ff3a 8dbd
00000320: 7874 d93e ca9f 42bd 6dad 373d e986 223e
00000330: e0bd 20be b5e9 63be 0e76 d5bd 51e9 5f3e
00000340: b8e5 523d 5d7a 44be 9740 3d3e f657 44be
00000350: b208 8f3d 8350 cebd b594 363e 9250 ac3d
00000360: f28a 7bbc 3589 463e 52bc 5ebe ab69 aa3c
00000370: 9220 27be 94ea f93b 225b 243d 97cc 8f3e
00000380: 28aa cc3d 85ed 1b3d 17c5 793e 2679 8b3e
00000390: e6f9 e33c c8b3 04be b629 f63d 6739 74bd
000003a0: 5447 463e 6ea3 0cbd 80fa 513e 6f89 a2be
000003b0: 6a8e 2ebe 6876 a2bd a253 dc3c e55b a0bc
000003c0: b5a7 09be 4f4a bcbe 9c67 1abe cc9d fa3d
000003d0: f097 87be c8be 9d3e e1a5 183e f0df b83d
000003e0: fce0 ddbe 1a6d 463e 03af e83d f7b2 db3d
000003f0: 63cb 0fbd e72d 543c 79cd e43d fa7b 76be
0.19498919 0.048653234 0.07529766 -0.08980868 -0.13497101 0.2226067 0.09038578 -0.1183118
0.16914396 -0.26564592 -0.00361941 0.104658365 0.20302768 0.036341388 -0.23382229 0.045740172
0.05412005 -0.14452134 0.02035975 -0.17521836 0.16866177 -0.07855239 -0.045592017 -0.19691145
-0.044072445 -0.01761624 0.08383776 -0.1919362 -0.16947918 0.21144839 -0.116795026 0.0280097
0.17646493 -0.27770117 -0.047681354 0.024988959 0.07183592 -0.19108097 0.051228587 -0.32999644
0.062025428 -0.04189934 -0.04971225 -0.064726554 0.06085178 -0.07698423 0.07129076 -0.20889017
0.05260045 0.022278434 0.24517708 0.035398856 -0.1731922 0.27649873 0.0029835447 0.1828675
-0.067420185 0.040110704 -0.08167363 -0.053352654 0.11346158 0.13715056 0.04555119 -0.115214825
0.17463428 0.06249926 0.048050873 -0.06413608 -0.36130035 0.21194005 0.08339404 -0.058519255
0.13871856 -0.12570867 0.16118951 0.21382803 -0.00783522 -0.20704208 -0.14337914 0.039490286
-0.056531597 -0.11869625 0.06578959 0.06529517 0.18612784 -0.17999381 -0.20355347 -0.030147014
-0.16131175 0.17237303 -0.01280428 -0.2843545 -0.29170313 0.25009745 -0.20629393 0.1190048
0.04071227 -0.12492353 0.22473265 0.2621675 0.25001204 0.06772047 0.22491728 -0.24344434
0.09851212 -0.16350365 -0.1506506 -0.16826394 -0.027675448 -0.013232024 -0.15671152 0.0846218
0.4483561 0.035852034 0.21502216 0.10070075 -0.1826375 -0.039395615 0.038005333 0.015843512
0.055068247 -0.033249266 -0.2637561 0.1501753 0.056301344 0.1122124 0.13939643 -0.17967854
0.33779573 -0.16262908 0.21375768 0.5522833 -0.1529857 0.1099504 0.055159193 -0.0041569476
-0.0050245724 -0.28638735 -0.09507517 0.20594348 0.15764661 -0.8356892 0.084393546 -0.0057338667
0.29177275 0.22454809 -0.16876791 -0.25982141 0.03628607 -0.12069903 0.5112322 -0.011438105
0.05056672 0.29788643 -0.4599933 -0.16129225 0.14963932 0.16081204 -0.009564277 0.011358482
0.14870699 0.06343772 0.121824816 -0.16300862 -0.12730643 -0.4341694 -0.20726563 0.08588634
-0.11714204 0.08129585 0.13150586 -0.21198827 -0.047907162 -0.21356878 0.090658054 0.22233519
0.31213698 -0.05101739 0.14704928 0.08291156 0.1377554 0.0921289 -0.12890367 0.11288868
0.019365506 0.19037767 -0.29667866 0.12776446 -0.14523342 -0.057034027 0.037800707 -0.06533485
0.13877651 0.22043802 0.23301429 -0.051899392 -0.077141516 -0.05509332 0.004876083 -0.06896018
0.4247167 -0.047515668 0.044843126 0.15871777 -0.15697432 -0.22257121 -0.10422908 0.21866347
0.051488608 -0.19187303 0.1848167 -0.1917418 0.069840804 -0.1007395 0.17830165 0.08413805
-0.015352951 0.19388278 -0.21751526 0.02080234 -0.16321018 0.007626841 0.040125974 0.28085777
0.09993392 0.038068313 0.2439159 0.27240866 0.027829122 -0.12959206 0.120196745 -0.059625056
0.19363147 -0.034335546 0.20505714 -0.3174548 -0.17046514 -0.079327404 0.026895348 -0.019575069
-0.13442881 -0.36775443 -0.15078586 0.122371286 -0.26483107 0.30809617 0.14907028 0.09027088
-0.43335712 0.19377556 0.11361506 0.10727494 -0.035106074 0.012950397 0.11172003 -0.24070731

dense3.bias f4 [32]
00000000: 060e 1e3e af98 b8bd 31e0 053e 9d4e 063e
00000010: 152e 073e e693 563d b557 14bd eab1 a0bc
00000020: 662f 79bd fc25 7f3d 1387 083e cfc3 7ebe
00000030: 5f2d 6fbd 46a2 313e 70f4 2ebe fda0 a3bd
00000040: 6399 eebd a42b fdbd f1ea e3bd 8995 e1bd
00000050: ccbe 0dbd 6656 263e c52b 183d cb52 173e
00000060: 62ae 12be 773a 02be 918c 4ebe 0ef6 b4bd
00000070: 1a63 8d3d 6c20 34be d6df 5a3e 1342 b8bd
0.15435037 -0.09013497 0.13073803 0.13115926 0.13201173 0.05238714 -0.036216456 -0.019616086
-0.06083622 0.062292084 0.13332777 -0.24879383 -0.05839288 0.17347059 -0.17085433 -0.079896905
-0.1165035 -0.123618394 -0.11128796 -0.1101485 -0.034605786 0.16243896 0.037151117 0.14777677
-0.14324334 -0.12717615 -0.2017081 -0.08835994 0.06903668 -0.17590493 0.21374449 -0.08996978

dense4.weight f4 [3, 32]
00000000: d726 743f 2693 813f d659 283f a2c1 fa3e
00000010: 7f06 3f3f 5efd 013f 44ba 5fbf a145 2cbf
00000020: 0ce5 75bf 5ed9 1b3f 1239 303f a976 5fbf
00000030: 1bc2 183f b254 2d3f f629 bdbe 1628 5f3f
00000040: 87af 80bf e766 94bf b04e ef3e 886e 5abf
00000050: 370a 3fbf c4d2 e43c 5079 633f 3f74 3d3f
00000060: 0e7c 4cbf a0c8 38bf 6ad1 32bf 6038 37bf
00000070: 60de 0a3f 4fde 06bf f0d3 c8be 4f26 93bf
00000080: 1630 003f 6394 513f 6e5f 323f 1ddc 683f
00000090: 3ba3 293f b572 0c3f 6a9b 80bf aad3 57bf
000000a0: 63d8 87bf b5e3 5f3f 6a67 4d3f 3cac 42bf
000000b0: 94be 593f c3b9 223f b1b5 a0bd e45e 6c3f
000000c0: af47 02bf 0134 81bf e9c3 f63e 7f52 3dbf
000000d0: d6ca 08bf 38cb 833e 3b71 493f 27bd 823f
000000e0: fd03 39bf f105 36bf 72a6 3ebf 02a1 7dbf
000000f0: fd4f 333f cfcd 46bf 89ae 5ebf e459 acbf
00000100: 78bc b83f 20ba 9c3f 5693 db3d b900 343f
00000110: 6c8b 493f 5233 1f3e bedf 83bf 5e64 c4be
00000120: 349f 89bf f5e1 cc3e 0bfa 443f aaea d4be
00000130: fc72 b53e 5f35 2e3f 4e4c 80bf 5ec9 583f
00000140: 8095 88bf c043 96bf d38d 343f a8a8 42bf
00000150: 0886 7dbf 9cfa f7be 2f78 133f e700 263f
00000160: 18b6 58bf 042c 35bf 8507 5fbe 737c 98be
00000170: 68b8 5b3f f583 1ebf 71e6 123d ed1f 3cbf
0.95371765 1.0123031 0.6576208 0.48975855 0.7461929 0.5077723 -0.87393594 -0.67293745
-0.9605262 0.6087855 0.6883708 -0.87290436 0.5967118 0.6770736 -0.36946076 0.8717054
-1.0053567 -1.1593903 0.4673972 -0.8532491 -0.7462496 0.027932532 0.88856983 0.740055
-0.7987679 -0.7218113 -0.6985079 -0.71570396 0.5424557 -0.52682966 -0.39224195 -1.1496066
0.50073373 0.81867045 0.69676864 0.90960866 0.66264695 0.5486253 -1.0047429 -0.8430735
-1.0612911 0.8745683 0.8023592 -0.7604406 0.85056424 0.635647 -0.07847155 0.9233229
-0.5089063 -1.0093995 0.48196343 -0.73954004 -0.53434503 0.2574098 0.786884 1.0213975
-0.7227171 -0.71102816 -0.74472725 -0.99073803 0.7004393 -0.7765779 -0.8698507 -1.3464932
1.4432516 1.2244301 0.107214615 0.703136 0.78728366 0.15546921 -1.0302656 -0.38357824
-1.075171 0.40016142 0.76944035 -0.41585284 0.3543929 0.6805019 -1.0023286 0.8468226
-1.0670624 -1.1739426 0.70528907 -0.760386 -0.9903264 -0.48433387 0.5760526 0.64845127
-0.84652853 -0.7077029 -0.21780212 -0.29782447 0.85828257 -0.619201 0.035864297 -0.73486215

dense4.bias f4 [3]
00000000: 0e41 0a3f b861 163f 40cd ea3e
0.54005516 0.58742857 0.45859718
