archived_results/ddqn/best_online_net.bin (torch, 46543 bytes, 8 tensors)

dense1.weight f4 [128, 4]
00000000: e057 1f3f 44b9 16bf 5058 25be d781 03bf
00000010: 130c 44be c116 093f 60c6 a73e f155 9dbe
00000020: 37f3 dbbe e50d 153f c5b1 ad3e 37ab 823e
00000030: d658 31be 201b b7be ed27 4cbe b9ec 0dbf
00000040: c1fd 593e 4e2e d03e 5c90 883d 236e 54bc
00000050: 086b 69bc 065c 18bf 897c 7cbe d7a7 fabd
00000060: dc27 f43e 10eb 8cbe 247e 1cbe b2b9 07be
00000070: 6dc8 e13e 0e17 0cbf d100 0abf 5752 de3e
00000080: d2b2 b0be f9e0 91be 8ca3 2f3e c74e fdbd
00000090: 1361 853e ea17 e83d 0e5e c73e 30ff abbe
000000a0: d89a c03e 4b8a 1bbf ec71 5cbd ec55 903e
000000b0: 5a8c b03d dd1b 1ebf 864c 7bbe 82d1 b4be
000000c0: 960d e83e 8d8e cebe 3045 61be 532c aa3e
000000d0: bfcc 60be 19c5 ccbe c479 053e c598 13bf
000000e0: 9d23 13bf df43 343e 13dd 063e efdb 0b3f
000000f0: b5ad 12bf 411b ac3c 818d 663e 7e05 a13d
00000100: 55ce 003f 41c9 2d3e 5e0c fbbd 2aca bdbe
00000110: fb14 fd3e b698 da3d 1a0c 093e 84d6 bb3e
00000120: b1e6 28bd 95de 843e 77b3 59be f454 9f3e
00000130: f699 89bd f93f d338 7245 303e 9c37 ca3e
00000140: c85f 25bd b6d5 d8be 7412 c03e 5289 dfbe
00000150: 31bf fd3c 8ecb d03e 93c0 e5bc 8107 e13e
00000160: 01cd a03d 4f6c 6fbd 1a80 99be f081 0d3f
00000170: 749b 38be 4fb4 14bd 11e5 193f 6242 63be
00000180: 55d8 213d c619 f83c 7ee8 e4bd cb21 a1be
00000190: a364 7d3e 8193 31be 0e8a 91bd 0d7c 843e
000001a0: 9e84 c03d 624b 043f b649 4ebe d313 023c
000001b0: e2a4 983e 1d4e 36bf 9289 0fbe e73a 113b
000001c0: 690e c9bd 2d72 993d 2c7c 42be 3cce 10bf
000001d0: 2e3b b33d 8743 ec3e a92e 99be d9a0 80be
000001e0: e8d2 103f c530 f8be b021 123f d55f 8bbe
000001f0: bc8d d63e a9bd fb3e 80be a13d 75c5 9f3e
00000200: ed56 d0bd 52d9 e7be 898b 56bd 0a4c be3e
00000210: 91dc 5e3e f26c cfbd 60cc 133d b3f9 86be
00000220: e952 a33e 9542 f3be 317b 723e d0fb f13e
00000230: 8efe 453d b5f9 093f d20e 6c3d 72f8 e33e
00000240: 0d76 923e 3ced 17bd a8b6 2f3d 1024 8abe
00000250: 48c7 e13d 57b5 ef3e 5d7c bf3e 8254 1abf
00000260: b833 78bc 9872 d73c e3cd bfbe 5c59 2e3e
00000270: 5c56 243f d2be 54be 547b c1bd bf02 593e
00000280: 78b3 28bd b5bd 1abe 7471 febe f9a2 0b3f
00000290: a6a5 4abe d04a 1d3f fb89 20bd 8316 863e
000002a0: e4da 2c3b 6acd f5be 1ccb 48be ccec 7f3e
000002b0: f715 fcbe aae4 25bd b01f 65be db51 25be
000002c0: 2fe6 ebbe e823 373c 9b8c 773e 62bc 0ebf
000002d0: bb98 1a3f b933 17bf de4b 4abe 3f47 6ebd
000002e0: ee26 0f3e e7e7 01be 8795 2e3e 61eb 6e3e
000002f0: e522 143f 6dc1 16bd b9a7 533d 0b79 f8be
00000300: 5b31 0b3f 5710 16bd 99ff ec3d 9b03 d13e
00000310: a435 833a 8321 083f 7dba 41bc c0a7 12bf
00000320: ebf8 f13e b8b6 013e d295 9fbd b910 6f3e
00000330: c48d c0be bdca 9e3e 7bf9 10bf 4d76 013d
00000340: ce6f 013f 66e4 b73e 1e2c 03bf 7076 e2be
00000350: c8bb 7bbc 47db d4be cc0c 74be 8c6b cd3e
00000360: a426 f8be e575 153f fd02 d6be fa0d b33d
00000370: a7b6 bf3d 468b 553e fe09 503e 767c f5be
00000380: 8f57 2fbe 2632 f3be 1b2b 07be 326e 9cbd
00000390: 5897 92bd 13b6 163f ea9b aa3e 0f46 c33e
000003a0: 406f 3fbe 3834 d8be b5eb 5e3e dd23 29bf
000003b0: 1cc0 323e 1251 9d3c f4f4 253f 44b4 693e
000003c0: e94c 4c3d db12 01bf 7e9b 7e3e b873 bdbd
000003d0: 2d8e 2bbd 1430 08bf 58a4 04bd a9e0 ddbe
000003e0: e124 823e 53f4 b03e 332f a3be 90ef b13d
000003f0: 881e 9dbd d062 9e3e f839 7bbe 23e5 92bd
0.6224346 -0.5887644 -0.1614697 -0.51369995 -0.19145231 0.53550345 0.32768536 -0.3072963
-0.42958996 0.58224326 0.3392469 0.25521252 -0.17319044 -0.35762882 -0.19937105 -0.55439335
0.21288206 0.40660328 0.06668159 -0.012965712 -0.01424671 -0.59515417 -0.24656881 -0.12239044
0.4768666 -0.27523088 -0.15282494 -0.13254431 0.44098225 -0.5472268 -0.53907496 0.43422195
-0.3451143 -0.28491953 0.17152232 -0.12368541 0.26050624 0.11332686 0.38938946 -0.3359313
0.37618136 -0.60757893 -0.053819582 0.28190553 0.0862052 -0.61761266 -0.2454091 -0.35316092
0.45322865 -0.40343133 -0.21999049 0.33236942 -0.21953104 -0.39994124 0.13034731 -0.5765498
-0.57476217 0.17604016 0.1317027 0.5463247 -0.57296306 0.02100909 0.22514917 0.07862376
0.5031484 0.16971304 -0.12258218 -0.370683 0.4943007 0.106736585 0.13383523 0.366871
-0.04123563 0.25951067 -0.21259867 0.31119502 -0.06718819 0.0001007318 0.17213991 0.39495552
-0.040374547 -0.42350549 0.3751408 -0.43659455 0.030974956 0.407803 -0.028045928 0.43951038
0.078516014 -0.0584529 -0.29980546 0.55276394 -0.1802805 -0.03630477 0.6011515 -0.22193292
0.03951295 0.030285727 -0.11177157 -0.31471094 0.24745421 -0.17341425 -0.0710641 0.25875893
0.09400295 0.51677525 -0.20145306 0.007939297 0.29813296 -0.7121294 -0.14017323 0.0022160353
-0.09817202 0.074924804 -0.1899268 -0.5656469 0.08751522 0.4614527 -0.2991841 -0.25122717
0.5657182 -0.48474708 0.57082653 -0.27221552 0.4190501 0.49168137 0.07897663 0.31205335
-0.1017283 -0.4528299 -0.052379165 0.37167388 0.21763827 -0.101282015 0.03608358 -0.2636238
0.31899193 -0.47511736 0.23679806 0.4726243 0.048338465 0.5389665 0.05763132 0.44525486
0.2860569 -0.03709148 0.042898804 -0.26980639 0.11024338 0.4681804 0.3739957 -0.602852
-0.015149049 0.02629976 -0.37461767 0.17026275 0.64194274 -0.20775917 -0.09447351 0.21192454
-0.04118678 -0.1511143 -0.49695933 0.5454555 -0.19789752 0.6144228 -0.03919409 0.2618905
0.0026375586 -0.4800828 -0.1960873 0.24992675 -0.49235508 -0.040501274 -0.22375369 -0.16144507
-0.46074054 0.011177994 0.2417473 -0.557562 0.603893 -0.590633 -0.19755504 -0.058173414
0.13979694 -0.1268612 0.17049228 0.23331977 0.57865745 -0.03680556 0.051673625 -0.48529848
0.54372185 -0.036636677 0.11572189 0.40823063 0.0010010493 0.53176135 -0.011824247 -0.57287216
0.47260222 0.12667358 -0.07792248 0.23346223 -0.3760816 0.31014052 -0.56630677 0.03160696
0.50561225 0.35916442 -0.5123919 -0.44230986 -0.015364595 -0.41573545 -0.23833007 0.40121114
-0.4846698 0.5838302 -0.41799155 0.087429 0.0936101 0.2085391 0.20316312 -0.4794652
-0.17123245 -0.47499198 -0.13200037 -0.076382056 -0.07157773 0.58871573 0.33322078 0.38139388
-0.18694782 -0.4222734 0.21769603 -0.6607035 0.17456096 0.019203696 0.64826894 0.22822672
0.049878035 -0.50419396 0.24864003 -0.09250587 -0.041883636 -0.5319836 -0.032383293 -0.43335465
0.2541876 0.34561405 -0.31871948 0.08688271 -0.07671839 0.30934763 -0.24533832 -0.071726106

dense1.bias f4 [128]
00000000: 1ddc 0a3e 0d3c b2bc 76f9 fdbe 650e db3e
00000010: eb50 abbe 2bdf 0c3f 1baa 18be 1290 6a3e
00000020: 4c41 223f a82c 643e 55cb 23bf 4a77 5b3d
00000030: 5978 153e 3cd9 adbe 2acb bfbe eeac 54bc
00000040: 5877 7e3e 90ca 6abe fe3e cebe 067e 18bf
00000050: 8b35 11bf 0fd9 2d3d eb85 39be 26ce 303f
00000060: bf3d bb3e 2c19 f5be 0fa8 0c3f 3485 f43e
00000070: a2ee 20bd 5df5 51bd 0064 113f 4f0a 4b3e
00000080: ca30 663e ed95 f4be 4a20 a23b c5cc 253e
00000090: 1bf2 84be 201c a03c 0905 de3e c78f 24be
000000a0: fd04 093e 2a79 13bf 6715 e63d c4b2 e3be
000000b0: 3a71 cb3e 4aae 0c3e 89b0 33bf a9c5 0cbf
000000c0: 9e8f 85be 4a9f 07bf 5c41 b9be f7ed 173f
000000d0: aea7 05bf e990 03bf a338 ee3e d9e7 09be
000000e0: 473a bcbe 2576 0c3f 7567 163f 135d 14bf
000000f0: 6e7d 90be 4125 223e bc34 a6be 9ef0 1a3f
00000100: aeff e1be 787a ac3e 3866 fd3e bb99 16bf
00000110: 86e6 a4bd 78b8 783e 5ab6 9b3c 9f31 02bf
00000120: c84f cbbe 64f2 fa3e 9b77 51be 010c 053f
00000130: f68e 7fbd 0c01 a73e 4e85 fcbe 5325 dabe
00000140: b987 393e 4cb0 a3be 484e ad3e 0410 1dbf
00000150: b6e2 f5be 27b1 e2be 390b 153f 1c49 46be
00000160: 1c05 b7be 59dd e4be 468f 093f 9ecc c23e
00000170: 0790 bf3e 0dd2 94be 2862 8b3e 106c af3d
00000180: 7b52 80be d773 3a3e e399 113f ec7b 1dbe
00000190: 783a 923e 7be8 753e a988 243f 0983 c2be
000001a0: 20fa 313f b7f3 93be a816 2dbf f79b 0a3f
000001b0: 6641 193f 881b 01bf b398 05bf c97b ffbe
000001c0: 2ffa 9a3e 8b58 bb3e f81e eabe 3783 a6be
000001d0: 779b 14be c7fc 1b3e 76a6 1abf fa71 efbe
000001e0: 5659 343d 6239 f03e 9115 98bd 3fef dabe
000001f0: 075c 70bc 7ad4 073f a47f 28bd 586a 80be
0.13560529 -0.02175715 -0.49604386 0.4278442 -0.33460173 0.5502803 -0.1490864 0.22906521
0.63380885 0.2228266 -0.63982135 0.05358056 0.1459669 -0.339548 -0.3745969 -0.012980683
0.24850214 -0.22928834 -0.40282434 -0.59567297 -0.56722325 0.04244333 -0.18117492 0.6906456
0.36570546 -0.47870767 0.5494394 0.47757876 -0.039290078 -0.051259387 0.5679321 0.19828151
0.22479549 -0.47770634 0.004947697 0.16191395 -0.25965962 0.019544661 0.43363217 -0.16070472
0.13380809 -0.57606757 0.11234551 -0.44472325 0.39734823 0.13738361 -0.70191246 -0.54989105
-0.26086134 -0.5297743 -0.36182678 0.5934748 -0.52208984 -0.5139299 0.46527585 -0.13467349
-0.36763212 0.54867774 0.5875161 -0.5795452 -0.28220695 0.15834524 -0.32462108 0.605234
-0.4414038 0.33687186 0.4949205 -0.58828324 -0.08051781 0.24289119 0.01900785 -0.50856966
-0.39709306 0.49013054 -0.20455782 0.5197144 -0.062392198 0.32617986 -0.49320453 -0.426066
0.1811818 -0.3197044 0.33848786 -0.6135256 -0.4802453 -0.44275782 0.5822025 -0.19363827
-0.35746086 -0.44700125 0.5373424 0.38046736 0.37414572 -0.29066506 0.27223325 0.08565533
-0.25062928 0.18208252 0.5687544 -0.15379304 0.28560233 0.24014466 0.64271027 -0.37990597
0.69522285 -0.28896877 -0.67612696 0.54144233 0.59865415 -0.50432634 -0.52186126 -0.49899128
0.30269 0.3659099 -0.45726752 -0.32521984 -0.1451243 0.15233146 -0.6041025 -0.46766645
0.04403051 0.4691878 -0.074259885 -0.42760655 -0.0146703785 0.5305859 -0.041137353 -0.25081134

dense2.weight f4 [64, 128]
00000000: 42c7 0cbd d136 80bd 0b9d 77bd 1264 40bc
00000010: 4315 ea3d 2534 bebd 042a 913d 2d37 9f3d
00000020: 38f8 c5bc aaeb a13c e8c4 123e ecbf bb3b
00000030: 3ef8 c73c 1c0c 00bd 300b 1abe 794b 6dbe
00000040: 70d5 bc3d b874 be3d d9b1 9f3d 2e0f 81bb
00000050: f5e2 303d fb2c 9abc c29a ce3d 2ccb 38be
00000060: 7caa 74bd d366 363d 56c4 803d fac4 a3bd
00000070: ba1d 3f3c bc81 1c3c 63d4 d7bc 0462 6c3d
00000080: 3f0e 693d b773 483d 26ef 153d 6968 913b
00000090: e0f3 753d efab 80ba 2672 8dbd 1bd3 f53d
000000a0: cc0e 4739 fcb5 2cbd ea98 843d 5618 a93d
000000b0: 7eda 69be e4b3 f93d dd12 863d 4bd3 c0bd
000000c0: 82d3 4e3d ef2c 62bd 8c83 293e ce40 d3bd
000000d0: b928 473e 7ea1 f63d 7077 ccbc 6876 e5bd
000000e0: ee27 9ebd 73a9 90bd 6460 09be 90f8 803d
000000f0: fb27 0ebd cab1 5dbc 7cf9 ef3d c34a 1e3c
00000100: 207f 1c3e 647c 31bd f8d7 1ebe a74b efbb
00000110: ba69 b33d 8250 023e 3a14 03bd 1a70 ed3b
00000120: d779 e63c 6464 a6bd be88 f73d 8265 f6bc
00000130: 65ff fbbb 33b8 1b3d 3d93 ce3d bd64 89bd
00000140: c87c f0bc 3e55 babd ea04 ed3c ce3e b1bd
00000150: fd24 95bd aab0 d53c 2326 3dbd a7ad 3dbe
00000160: 1c81 343d f042 02be 9c6b 19be d5e3 60bc
00000170: 309a ecbd 2a85 8f3d 54eb 49be 5264 513d
00000180: 09e3 01bd f858 5dbb ecd9 b9bc c493 f03d
00000190: 51d2 c8bc fd6a bd3d c953 a0bd d66f 173e
000001a0: c38c debd fc07 2cbc 8ebb 443e 17a3 813c
000001b0: a402 fabd 5892 4c3e 3c69 103e 8847 ca3d
000001c0: 6fd1 c13b 28ec b8bb 8d13 debc 31a9 9dbd
000001d0: b84c 9bbd ad47 4e3d 0efe 6c3d 7f87 13be
000001e0: c957 babd 7c44 b73d 253e e03d 06e9 a93d
000001f0: 786d b9bd eefe 9bbc e73b eebd 49a8 59bd
00000200: 0196 77bd be2f 7cbe 13b3 65be 11cd 283e
00000210: e1df 29be 443d 623e 2c5f 75bd 5222 6d3e
00000220: db49 cc3d edd2 e5bd 40bb 7cbd 50eb 1c3e
00000230: dae3 693e 4946 023d a9b6 e5bd 2ca6 ff3d
00000240: 70a7 16be 2291 53bd 7ba2 bcbd e239 cabc
00000250: f484 563c c07c b0bd fc46 b83d b463 09bd
00000260: b592 b7bc 9cd5 96bd b839 0ebe 9a8a 883e
00000270: 0133 5f3d 374c 56bd 8b19 2b3d 37f9 aebd
00000280: 280c 943e e9d1 6bbc da3c d63c 79cd 18bd
00000290: e8a4 90bd 7779 53be d988 413d f6c6 243d
000002a0: 8491 873d ac78 30be 2cb8 b83e 5a94 26bd
000002b0: c28b 35bd c992 163e 613e d4bc 65e4 e2bd
000002c0: ff6f 0c3c f8b0 e8bd f146 d7bd 7f06 1d3e
000002d0: 386f 163c 1c3e ae3d 331a 8d3c 4a00 fdbd
000002e0: a913 043e 07dc 48bd 917d c53d 0ee4 c9bd
000002f0: 4bc2 6bbc 247c a23d 0e2d 063d 21de 2a3d
00000300: 6e7a 6b3d e020 1c3d 8247 1f3e 1a68 53bd
00000310: e9e3 4e3d 5598 efbc 4938 43bd 5241 04bd
00000320: 9d76 ccbd 498c 133e 5cd6 ba3d b1dd 483d
00000330: f3f2 71bd 902d 0cbe 8faf f1bd 346b a43c
00000340: 81bf 6d3e 93e5 7cbd 0c38 913e 9b24 babc
00000350: 4aaa 5bbd e1fb 34be e3b2 773e f4ce 20be
00000360: dcf1 273e 4377 3abe f5a3 a3bc 3f72 aa3d
00000370: 0e7c 6b3d 741a e6bd 4299 4dbc d96f cdbd
00000380: f7a7 253e 9640 1a3e 90b3 2fbd 2190 50be
00000390: ccf8 f03d 1c16 4e3d 09c0 cebd 797c 833d
000003a0: 8489 373c cd0c eebd 796c 373d 86b9 fa3c
000003b0: 7755 de3d b64d 193d 7a83 6e3c e5b3 95bd
000003c0: d612 dbbd 3819 c53d 68f3 3c3e 41a0 ab3c
000003d0: 3ad7 4abd 4d81 4f3e 9772 a4bd 4c96 6c3d
000003e0: 85ff 753d f85c 263c 2de0 23be e9cd 413d
000003f0: 34a1 9b3d e57d cebd e3a9 10be 1f0b e23b
-0.034369715 -0.062604554 -0.060452502 -0.011742609 0.114298366 -0.092872895 0.07088092 0.07774196
-0.024166211 0.019765694 0.14332926 0.005729666 0.024410363 -0.03126155 -0.1504333 -0.23173322
0.092203975 0.09299606 0.077975936 -0.003938577 0.043185193 -0.018820276 0.100881115 -0.18046254
-0.0597329 0.044531655 0.06287448 -0.07996555 0.011664802 0.009552415 -0.026346391 0.057710662
0.05689835 0.04893848 0.036605023 0.0044374955 0.06004703 -0.0009816865 -0.06906538 0.12003156
0.00018983631 -0.04216574 0.064744785 0.08256595 -0.22837254 0.121925145 0.06546567 -0.09415301
0.05049468 -0.055218633 0.16554087 -0.10315095 0.19449128 0.12042521 -0.024959296 -0.11204225
-0.0772246 -0.0706357 -0.13415676 0.062974095 -0.034706097 -0.013531158 0.11717507 0.009661379
0.1528287 -0.04333152 -0.15512073 -0.0073027196 0.087604 0.12726024 -0.03200171 0.0072460296
0.02813427 -0.08124617 0.120866284 -0.0300777 -0.0076903575 0.038017463 0.10086677 -0.067086674
-0.029356375 -0.0909829 0.028933007 -0.08654557 -0.072824456 0.026085217 -0.046178948 -0.18523274
0.04406844 -0.12720847 -0.14982456 -0.013726194 -0.115528464 0.07007821 -0.19718677 0.051121064
-0.03171066 -0.0033774953 -0.022686921 0.11746934 -0.02451435 0.09248922 -0.07828481 0.14788756
-0.10866692 -0.0104999505 0.19212171 0.015824838 -0.12207535 0.199777 0.14102644 0.09876925
0.005914859 -0.0056433864 -0.027108932 -0.07698286 -0.07582992 0.050361324 0.057859473 -0.14407156
-0.09098775 0.08948609 0.10949353 0.08296399 -0.09054083 -0.019042458 -0.11632519 -0.053139005
-0.06044579 -0.24627587 -0.22431593 0.16484477 -0.1658931 0.22093683 -0.059905216 0.23157623
0.09975024 -0.112218715 -0.061702013 0.1532414 0.22840825 0.03180531 -0.1121648 0.12482867
-0.1471231 -0.05165208 -0.09210678 -0.024685804 0.013093222 -0.08617544 0.08997914 -0.03354235
-0.022408823 -0.073649615 -0.13889205 0.26668245 0.054492 -0.052318778 0.041772407 -0.08543628
0.28915524 -0.014393308 0.026152063 -0.03730533 -0.07062703 -0.20651804 0.04724965 0.040228806
0.06619552 -0.17233533 0.36078012 -0.040668823 -0.044322737 0.14704432 -0.02590865 -0.11078719
0.008571624 -0.11361879 -0.10511578 0.1533451 0.00918179 0.0850794 0.017224407 -0.12353571
0.12898125 -0.04903796 0.096430905 -0.09857951 -0.014389585 0.07933834 0.03275781 0.041715745
0.057489805 0.03811729 0.15554622 -0.05161295 0.05051032 -0.029247442 -0.0476611 -0.032288857
-0.09983561 0.14408983 0.09122917 0.049039546 -0.059069585 -0.13689256 -0.11801063 0.02007065
0.23217584 -0.061742377 0.28363073 -0.022722533 -0.053629197 -0.17674209 0.24189334 -0.15703946
0.16400856 -0.18209557 -0.019975642 0.08322572 0.057491355 -0.11235514 -0.012548747 -0.10031099
0.16177355 0.150637 -0.042895854 -0.20367481 0.11766204 0.050314054 -0.100952215 0.06420226
0.01120222 -0.11623535 0.044781182 0.030606043 0.10856145 0.037427627 0.014557714 -0.07309703
-0.10696952 0.09623951 0.18452227 0.020950438 -0.049521662 0.20264168 -0.08029669 0.05776052
0.060058136 0.010154001 -0.16003485 0.04731551 0.075991064 -0.10082606 -0.14127307 0.0068982984

dense2.bias f4 [64]
00000000: d6f2 8b3c ad32 4f3d b949 5f3e c93c bfbd
00000010: 47f5 37bd 34ab d6bb 7a80 b73d 9ccc 3dbd
00000020: 9da2 533c 50af ebbd 0b43 8c3a 40c7 003e
00000030: 2ab7 063c 97df 503e e265 113e 3a23 c0bd
00000040: 8e19 28bd 7da9 08be 1c36 933c 4153 c7bd
00000050: 9820 f53d f84d 30be 2f69 493c f747 993c
00000060: 813b 35be 22cc ccbd 26d8 7fbc 59db 79bc
00000070: 062a 33bd 7200 92bd 54d0 123e 682a 0cbe
00000080: 4919 9ebd b5f5 1bbe 6077 3f3d e70a 0b3c
00000090: b19a 0bbe dedc 6a3a 67db 3d3d d985 303e
000000a0: 0e26 b43a fbf4 51bc 2fb0 b73d d6a2 cabc
000000b0: 394f 1cbd 8756 1e3e 1e04 203e af01 d53d
000000c0: 01ad d13c ed32 d6bd 6eeb 16be e8d9 ea3c
000000d0: db86 95bd db93 223d baed ca3d cece 57bd
000000e0: ef42 f43d 6150 153e c4c0 0f3e af6f b93c
000000f0: 49c9 c0bd 352c 33bc 795d 84bd f298 873d
0.017083567 0.050585438 0.21805467 -0.09337766 -0.04491165 -0.0065511707 0.08960052 -0.04633771
0.012917188 -0.115080476 0.0010701133 0.12576008 0.008222381 0.20397793 0.14199021 -0.09381719
-0.041039996 -0.13345905 0.017970137 -0.09732676 0.119691074 -0.17217243 0.012293144 0.018711073
-0.1769848 -0.09999873 -0.015615499 -0.01525005 -0.04374125 -0.07128991 0.14337283 -0.13688052
-0.077196665 -0.15230449 0.046744704 0.008486486 -0.13633229 0.00089593034 0.046351817 0.17238559
0.0013744251 -0.012814756 0.08969151 -0.02473585 -0.03816149 0.15462695 0.1562657 0.10400712
0.02559519 -0.10458932 -0.14738247 0.028668359 -0.07301112 0.039691787 0.09908624 -0.05268746
0.11926829 0.14581443 0.14038378 0.022636263 -0.09413392 -0.010935833 -0.06463141 0.06620969

dense3.weight f4 [32, 64]
00000000: fbde f53c 75d7 e03b d090 f1bd cfdb 003e
00000010: 712a e9bd bff3 14be 6343 66be fe13 8dbd
00000020: 5f55 38be 0f06 09bd 015a 0e3d 1747 49be
00000030: 85f3 e73c 0cf1 dcbd ddfa 1e3e f0e1 0c3d
00000040: 40e5 ad3d a912 20be 7a74 21be 2e87 e83c
00000050: 7905 afbd 4d54 87bd 0753 563e a3e1 9abc
00000060: 7374 4e3e 6106 793d 14a5 76bb cd5c 973e
00000070: 0f8d 0f3e a230 1fbe 6a0a 83be cfdc 09be
00000080: a270 1f3e e828 ab3b 5482 89be 1f17 bd3c
00000090: 2764 68bc 0871 823d 5b7f 17be b8b1 bfbd
000000a0: 03ae 863c fe7d 213d d142 14be d32d 21be
000000b0: 02e9 d9bd 342c 24be d782 1ebe 69a1 bfbd
000000c0: 5b9d 66be 96bf f7bc bad8 a73d c687 adbd
000000d0: 51b3 3f3e 96d0 193c 34e4 6bbe a551 01be
000000e0: 6fa5 08bd 7b31 36be ff1f ebbb d85b 0cbd
000000f0: 1bb3 533e 220e 383e d873 38bc 27ee 82bd
00000100: 4812 703d ca12 f7bd 232f b2bd 6fb6 53bc
00000110: 5f71 2fbd 2926 fe3d 2d4c 3bbd 1f4b 61be
00000120: d8fa 55be ab22 a6bd 99d4 dabd 1ba4 a0bd
00000130: b1ec 7cbb eec3 98be a599 583e ed13 2bbd
00000140: 6482 afbd 7489 f1bd 1e0c efbd 77b2 e4bd
00000150: 56be dabc dd4e 34bd cde0 453d 7d2e d1bd
00000160: d836 703d e453 493d d14c d4bc 532f 1f3e
00000170: f6d3 9c3c f2e2 a6bd aae2 9abe 254a 89bd
00000180: 0b5f 703c 8b78 a6bc 85a7 82bd 60fc ef3d
00000190: 1b47 fd3d 61f0 db3d cd5b 0fbd 58fc dfbd
000001a0: ab44 b3bd f731 05be 2b1b 5dbe 6853 73bd
000001b0: 0f10 44be a949 32be 359f 5a3d 178c 99bd
000001c0: 1003 b3bd 2d0d 04ba f110 4fbd 9f95 cf3c
000001d0: e1d9 2a3e f3fe 8c3d 7899 30be 8eca 803c
000001e0: bec8 043e 4d4b a43c 828d b2bd d1bd 723c
000001f0: e95a 3a3e d9a8 8f3d 252b 723c ad81 393d
00000200: 2134 1bbe f141 8fbd 8701 99bb 6735 803d
00000210: a78d 03bc 9a38 073d 6831 2c3d be1a cdbc
00000220: b160 81bd c44b 30bd 24e6 c43b a054 d6bd
00000230: 5e86 e2bd d13a 0bbe d491 0cbe b68d 15bd
00000240: 98b7 8cbc 8726 283d 0f53 1bbe 0beb 0abe
00000250: 64aa 27be 7d9d ca3c b7ec d43d 372a 96bd
00000260: f9a2 843e 0b95 18bd 6881 543b 5d7f c73d
00000270: f72a b73d 17a6 6cbe 59e0 e8bd 9701 383d
00000280: f48e debd 1c4a f43d 7296 3ebe 1460 a1bd
00000290: a337 083e c0a2 1e3e 9705 5dbe 84c6 17be
000002a0: 0a02 b7bd db4d 033e f96b 99bd 3149 79be
000002b0: 5340 4dbe 16c7 6abd 7096 10be 9461 893d
000002c0: 6462 6bbe 204c 7fbd 175e ed3d a5cf c23d
000002d0: e14a 903d 4704 60bd 2341 21be 1cbc 18bd
000002e0: f69e 5ebe 627b dfbd 0989 2fbe 6fce 6cbd
000002f0: 8a2a 863d dce0 103e 513d 263d 6ba2 c23d
00000300: 1443 ad3d 571e cfbc d490 8a3d c7c2 0ebd
00000310: b5b4 53bd 73a0 3f3e a253 cb3d 66b7 13be
00000320: 056e d9bd f889 f9bd 7dfc 21bd 9c58 e13d
00000330: 5b9a b2bd 416f 22be 0692 643e 44c9 e9bd
00000340: fede 0abd 5477 3cbe fa1b 51bd 8570 713e
00000350: 2f8d 043d f382 2cbe 9c88 52be 4f7d d7bb
00000360: fccb 5f3d 966c c6bb 4aca 81bd 2044 62bd
00000370: c82a debc 7900 d03c 16d0 273d 5e08 09bd
00000380: 1294 86be 1c73 00bc f07f 023e 48b0 61bd
00000390: 89c4 803d 2a11 313d 1e58 2e3b 2e34 98bd
000003a0: 6d19 95bc 5494 5bbe 36f0 9d3e a72f 0cbc
000003b0: ace7 2fbe 03e5 b63e 221c b03c afe4 03be
000003c0: dd1c f83d 0e5d bebc 92ee 3abe 4ff1 143e
000003d0: 855e c93d 25af 4d3c c35b 493e 5837 2abd
000003e0: e20f 01be 0cf8 e2bd a613 e63d 0e67 d5bd
000003f0: ae17 83bd 972e 30be b4f3 363d 2c48 b73d
0.030013552 0.006861622 -0.11795199 0.1258385 -0.11385048 -0.14546107 -0.22486643 -0.06888579
-0.18001316 -0.033453044 0.034753803 -0.19656025 0.028314361 -0.107881635 0.15525384 0.03439516
0.084909916 -0.15632118 -0.15767089 0.028384771 -0.08545966 -0.06607876 0.2093011 -0.01890642
0.2016161 0.0607971 -0.0037635015 0.2956299 0.14018653 -0.15545896 -0.25593883 -0.13463138
0.1557031 0.0052233823 -0.26857245 0.023082314 -0.014184034 0.06369215 -0.14794676 -0.09360069
0.016440397 0.039426796 -0.14478613 -0.15740137 -0.10640146 -0.16032487 -0.15479599 -0.093569584
-0.22520964 -0.030242722 0.08195634 -0.08473162 0.18720748 0.00938811 -0.23036271 -0.12628801
-0.033360895 -0.17792313 -0.007175445 -0.034267277 0.20673792 0.17974141 -0.011258088 -0.0639308
0.058611184 -0.120641306 -0.08700397 -0.0129219135 -0.04283273 0.12409622 -0.045726944 -0.22001313
-0.2089647 -0.08112081 -0.10685081 -0.07843801 -0.0038593228 -0.29836982 0.2115236 -0.04176705
-0.08569792 -0.11793795 -0.11672233 -0.11166852 -0.026702087 -0.044020522 0.04831009 -0.10213945
0.058646053 0.04915227 -0.025915535 0.15545397 0.01914404 -0.08148755 -0.30251056 -0.06703595
0.0146710975 -0.020321151 -0.06379608 0.117180586 0.12367078 0.10739208 -0.034999657 -0.109368026
-0.08753332 -0.13007341 -0.21592395 -0.059405714 -0.19146751 -0.17410912 0.053374488 -0.07497423
-0.087408185 -0.0005037364 -0.050553266 0.0253399 0.16684677 0.06884565 -0.17246044 0.015721586
0.12967202 0.020055437 -0.08718397 0.014815764 0.18198742 0.07014627 0.014780794 0.045289684
-0.15156604 -0.06994999 -0.0046693715 0.06260186 -0.008029378 0.033012964 0.042039305 -0.025037166
-0.063172705 -0.043041006 0.00600888 -0.1046536 -0.11060785 -0.13596655 -0.13727504 -0.0365121
-0.017177388 0.041052368 -0.15168403 -0.13566224 -0.16373593 0.0247333 0.10396712 -0.073322706
0.25905588 -0.037251513 0.0032425765 0.097410895 0.08943742 -0.23110233 -0.11370916 0.04492339
-0.1086711 0.11928198 -0.18612078 -0.078796536 0.13302474 0.15491772 -0.21584164 -0.14821821
-0.08935936 0.12822668 -0.07491297 -0.24344327 -0.20044069 -0.05731877 -0.14119887 0.06708065
-0.22986752 -0.062328458 0.11590212 0.09512261 0.07045532 -0.05469158 -0.15747504 -0.03728877
-0.21740326 -0.10912205 -0.17142119 -0.057814058 0.065510824 0.14148277 0.04058582 0.09503635
0.0846006 -0.025283022 0.06765905 -0.034853723 -0.051686008 0.1871355 0.09928061 -0.1442543
-0.10616688 -0.121845186 -0.039547432 0.11003229 -0.08720847 -0.15862752 0.22321329 -0.114153415
-0.03390407 -0.18404895 -0.05105207 0.23578079 0.032361206 -0.16846828 -0.20559925 -0.0065762172
0.054637894 -0.006055425 -0.06337412 -0.05524075 -0.027120009 0.02539085 0.04096993 -0.033455245
-0.26284844 -0.007839944 0.12744117 -0.055099756 0.06287486 0.04322926 0.0026602815 -0.074318275
-0.0182006 -0.21443301 0.3084733 -0.008556283 -0.1717822 0.35721597 0.02149779 -0.12880205
0.1211488 -0.023237731 -0.1825507 0.14545177 0.09832481 0.012553965 0.1966391 -0.041556686
-0.12603715 -0.110824674 0.112342164 -0.10420047 -0.06401001 -0.17205273 0.044666007 0.089493126

dense3.bias f4 [32]
00000000: 7a3a 79bd 3618 27be 625c e7bd 7199 453d
00000010: 4c5d b73d 31f9 4b3e 3c57 3b3e a0a4 a13d
00000020: e666 34bb 4b2c ebbd a699 bd3d 505b 023e
00000030: bd51 42be 5a32 56be f4a4 c2bd c45b e9bd
00000040: 7d2a 3cbd 2106 0cbe 909d de3d 0214 4bbd
00000050: a66d 973e 1d09 693b 9c40 ae3d 304a 5d3e
00000060: 8645 553d 1512 6ebc 63e3 673d 36b4 7dbd
00000070: b772 b2bd 449e 0bbe 9b72 84bc cdcf 2c3e
-0.060846783 -0.1631783 -0.112969175 0.048242036 0.08953342 0.19919278 0.18294996 0.07892728
-0.0027527153 -0.114830576 0.09257822 0.12730145 -0.18976493 -0.20917645 -0.095041186 -0.11394456
-0.045938957 -0.13674213 0.108698964 -0.049579628 0.29575843 0.003555841 0.08508417 0.21610332
0.052068256 -0.014530678 0.056613337 -0.06193944 -0.08713286 -0.13634592 -0.01616793 0.16876145

dense4.weight f4 [3, 32]
00000000: 3363 65be c55f 37be 7f6a e3be d473 933e
00000010: 3556 db3d 670b b83e 38ec ef3e caee b33e
00000020: 3018 203f 85df 7bbe 1758 61be 0895 ea3e
00000030: 7b87 dfbe b736 dbbe 247e d9be 75b6 9bbe
00000040: 8a97 f53e b840 cbbe 79a9 093f 05a3 ea3e
00000050: afb5 043f 226c e8bd e4b8 363e 4379 783e
00000060: 1934 f5be 870e fc3e d62d f9bd e615 063d
00000070: cab9 993e 100c 713e 9ce6 a4be 04d3 a23e
00000080: 9dbb cdbe de09 dcbe cec4 b4be 79f4 8f3e
00000090: b0b5 063e 9bf6 003f 76cc d83e 9904 c33e
000000a0: 1d2c 033f efd1 d4be f293 08bf 12fd ab3e
000000b0: 06f5 d7be d9e6 f8be 3fda b8be 8385 fdbe
000000c0: 6f79 e83e 444c a7be 90e6 e13e 5ab8 be3e
000000d0: 8c4b b03e 8111 b13e f5bd 053f a6ea fb3e
000000e0: 91cd 09bf f5f7 293e 03e7 30be bfae 553e
000000f0: ea01 693d 9328 fe3e 81cb fabe 9d98 f13e
00000100: 85d2 c43c e199 183e 2a1a 01be 6475 093f
00000110: 3e83 a2be 9ba7 d53e 5b47 723e a9d6 003e
00000120: a52c 203f e5f5 a33d 682c bb3b 7420 f93e
00000130: 9904 99be 38c6 dabe d041 b6be b4ac 76be
00000140: 9926 183f 779d 06bf 0e5c 1d3f 1fd4 f63e
00000150: b43d 153e ac0c a7be 273c c23e 28c2 ae3e
00000160: 42f5 71be a7b2 c63e d6bc 70be bd83 f2be
00000170: b427 313f a806 043e 8282 aebe 7fe0 963e
-0.22401123 -0.17907627 -0.44417188 0.28799307 0.10709802 0.359462 0.46859908 0.3514312
0.6253691 -0.24596985 -0.2200626 0.45816827 -0.4365805 -0.42815182 -0.4247905 -0.3041264
0.47967178 -0.39697814 0.5377422 0.458275 0.5183973 -0.1134875 0.17843968 0.24265008
-0.4789131 0.49229833 -0.12166946 0.032735728 0.30024558 0.23539758 -0.3220719 0.31801617
-0.401822 -0.42976278 -0.353064 0.28116205 0.13155246 0.5037629 0.4234349 0.38089445
0.51239187 -0.41566417 -0.53350747 0.33591515 -0.42179126 -0.48613623 -0.3610401 -0.49515924
0.45405146 -0.32675374 0.44121218 0.37250024 0.34432638 0.34583667 0.52242976 0.4920246
-0.53829294 0.16598494 -0.17275624 0.20867442 0.05688659 0.4964033 -0.48983386 0.47186747
0.024026165 0.1490245 -0.12607637 0.5369475 -0.31740755 0.41729435 0.23660032 0.12581886
0.6256812 0.08005885 0.0057120807 0.48657572 -0.2988632 -0.42729354 -0.35597086 -0.24089319
0.59433895 -0.5258402 0.6146859 0.4820871 0.14574319 -0.32626855 0.37936518 0.34132504
-0.23628715 0.38808176 -0.23509535 -0.47366133 0.6920121 0.12893164 -0.34083945 0.29468152

dense4.bias f4 [3]
00000000: d8b9 033e 0532 db3e 14d6 8f3e
0.12863863 0.428116 0.28093016
