archived_results/ddqn_small/best_online_net.bin (torch, 46543 bytes, 8 tensors)

dense1.weight f4 [128, 4]
000000 45 c7 31 3e 34 1d aa 3e b8 54 8d be 01 94 07 be
       0.17361172 0.33225405 -0.27603698 -0.13240053
000010 b1 b7 1f bf 4a 12 c5 3e dd ca 3a 3e 57 84 23 bf
       -0.62389666 0.38490516 0.18241449 -0.6387381
000020 47 87 5c 3e d8 5b 49 be 04 ac 5c be da 6d c6 3e
       0.21535979 -0.19663942 -0.21549994 0.38755685
000030 d0 b9 0c 3d bb 0c e6 be 4b 79 bb 38 a5 50 04 3f
       0.034356892 -0.44931588 8.9394474e-05 0.51685554
000040 49 59 4c 3f de 51 77 bd 95 17 1e bd 34 2e fd 3c
       0.7982374 -0.06038081 -0.03859671 0.03090582
000050 de 45 22 be 91 c9 6e 3f f7 ca d7 be 61 29 fe bd
       -0.15846965 0.93276316 -0.42147037 -0.12410236
000060 9f 10 17 bf 3d 6c 11 be bb 29 ca 3e d2 39 ca 3e
       -0.59009737 -0.14201446 0.39484963 0.39497238
000070 81 e0 fc 3c 84 ab 29 bf 72 cc 8a 3e ce 60 c0 3e
       0.03086877 -0.6627734 0.27109104 0.37573856
000080 57 d8 3a 3e 11 74 67 be 8b 9e 90 be 88 42 fb 3e
       0.1824659 -0.2260287 -0.2824596 0.49074197
000090 66 7e 4c be 84 53 39 be 06 97 74 3e 93 af e8 be
       -0.19970092 -0.18098265 0.23885736 -0.45446452
0000a0 70 eb a7 3e c2 67 13 bf 04 6f e8 bd 1c 30 c8 be
       0.32796812 -0.57580197 -0.113492996 -0.39099205
0000b0 3e e1 77 3d 40 c6 0d 3e 07 d8 06 3e 63 b8 ef be
       0.060517542 0.13845158 0.13168345 -0.46820363
0000c0 a1 ae 3c 3f d7 ff 87 be 5a e8 25 3f 1e 85 78 3e
       0.7370396 -0.26562378 0.64807665 0.2426953
0000d0 07 7d f9 be 48 b3 b3 bd e4 d2 e0 bb 50 0f c4 3e
       -0.487282 -0.087744296 -0.0068610776 0.38292933
0000e0 c9 25 58 3e ce 4f eb be eb ff 17 be 35 be e4 3e
       0.21108164 -0.45959324 -0.14843719 0.44676366
0000f0 15 90 8c bd 0e 9f 8b bd 29 4a 84 bd 9d 88 b3 3e
       -0.06863419 -0.06817447 -0.064594574 0.35065165
000100 fa c0 6e 3e 1b 5a 79 be 06 6c 19 3e 47 2f 43 3f
       0.23315802 -0.24350779 0.14982614 0.76244015
000110 6d e7 0b 3d ee 4f 2f be 45 28 8d be d3 d7 44 3e
       0.03415625 -0.17120335 -0.27569786 0.19222955
000120 28 f0 e3 3e ac 23 90 bd 4e 93 2c 3f e6 e5 84 3b
       0.44519162 -0.07038054 0.6741227 0.0040557263
000130 ac 1d 15 bf fc 3b 93 3e 6b 95 67 bf c4 d6 ce 3e
       -0.582484 0.28756702 -0.9046237 0.40398228
000140 9a 6b e4 3e 33 0e ed be f9 03 91 3d ce 21 f4 3e
       0.44613343 -0.46299896 0.07080836 0.4768204
000150 68 d9 55 3e 64 7d 06 3f 38 ff 33 3e 5e 2f e9 be
       0.20883715 0.5253508 0.17577827 -0.4554395
000160 f0 7f ad bc 86 a1 55 3e 3b 2c fb 3c 26 7b 7c be
       -0.02117917 0.20862398 0.03066074 -0.24656352
000170 e5 eb bf 3d 26 11 5a 3e 4c 48 06 bf 95 e2 17 bf
       0.09371165 0.21295604 -0.52454066 -0.5933011
000180 3c 88 ba be a3 c6 f7 be aa 4b 31 3e 8a 71 93 bb
       -0.36432064 -0.48393735 0.1731402 -0.004499619
000190 43 16 07 3f 92 2c 05 3f c6 a2 c8 be fc ff e1 3e
       0.52768344 0.52021134 -0.39186686 0.44140613
0001a0 5c 88 ea 3b 04 04 1d 3f ce 4c 50 be cd 7e b3 3e
       0.0071573686 0.6133425 -0.20341799 0.3505768
0001b0 3c 67 6e 3b 2f 7f 13 3f 86 5c b9 3b a5 d3 70 bd
       0.003637745 0.5761594 0.0056567816 -0.05879559
0001c0 e3 3c d1 3c 38 8e 85 3d c5 a4 c7 3e 48 bc 05 3f
       0.025541728 0.06521267 0.38992897 0.5224042
0001d0 d4 1e 36 3e dc f9 88 3d 0f f5 e7 bc c3 76 ec be
       0.17785197 0.06688282 -0.028315095 -0.46184358
0001e0 f2 78 fe 3d 25 b0 ad be 14 91 11 3f 94 b2 69 bd
       0.12425412 -0.3392345 0.56861997 -0.05705507
0001f0 19 72 2b 3e 3e ff b9 bc 0c 64 2d bf a3 4d 50 be
       0.16742744 -0.022704717 -0.67730784 -0.20342116
000200 2a 1f 4b 3e b2 7b f4 3e 8f 60 8a be a4 b1 eb 3d
       0.19836107 0.47750622 -0.27026793 0.11508492
000210 5c 8d 41 be 9d da e1 3e 90 87 86 3e 9e fd ce 3e
       -0.1890158 0.441121 0.262753 0.4042787
000220 ad a4 07 3f 5a 5f 2a bf ba bf 68 be 92 e3 23 be
       0.5298565 -0.66551745 -0.22729388 -0.1600478
000230 d3 cb d9 be 15 66 2d bf 7f 35 11 3e 67 48 06 be
       -0.42538318 -0.6773389 0.14180563 -0.13113557
000240 58 cb 48 3d 81 0b 11 bf 51 5d 40 bd 77 8d 35 3e
       0.04902205 -0.5665818 -0.046963993 0.17729746
000250 b0 c4 be 3e 59 69 9d be 92 29 aa be 99 3e e1 be
       0.37259436 -0.30744436 -0.3323484 -0.4399307
000260 71 6c c5 3e 5b 52 21 3f 2a 04 19 be 55 6f 68 3d
       0.38559297 0.6301629 -0.14942995 0.0567468
000270 79 ca ad 3e 4a 28 35 3f 08 a0 5d 3d d0 ac 70 bc
       0.33943537 0.707646 0.054107696 -0.014689639
000280 5b 55 53 3c a3 77 8f be 57 37 f2 3e 06 f9 15 3e
       0.012898768 -0.28020963 0.47307846 0.14645776
000290 06 06 29 3f 86 50 00 be e6 07 15 3d 17 6e e2 3e
       0.66024816 -0.12530717 0.036384486 0.44224617
0002a0 40 b3 18 be 2d b1 02 be 32 d1 77 3e eb 44 c8 be
       -0.14912128 -0.127629 0.24200895 -0.3911508
0002b0 cc 11 5f 3e 84 70 ad 3c 0f 5a f0 3e 6f 17 03 3e
       0.21784133 0.021171816 0.4694371 0.12801908
0002c0 cd 2c db 3e 3c 7b b9 be 04 29 e8 bd d2 4e 99 be
       0.42807618 -0.36226833 -0.11335948 -0.29942948
0002d0 f8 9f 73 be b7 89 6c 3e ef fc 67 3e 2b 3a 0a bf
       -0.23791492 0.23099409 0.2265508 -0.5399501
0002e0 a3 66 08 3e d6 8a 87 3e ec 27 2a bd 5c 13 37 bd
       0.13320403 0.2647311 -0.04154198 -0.044696197
0002f0 26 ce be bd 26 1a 92 3e d8 5f 7a 3c 23 3b 03 bf
       -0.093166634 0.28535575 0.01528164 -0.5126211
000300 45 48 52 bd b8 d6 59 3e 4a 26 bf 3e 21 e4 20 3e
       -0.051338453 0.21273315 0.373339 0.15712024
000310 3c 60 f2 3e 32 63 9f be eb 7b f7 be 65 bb 91 be
       0.47339046 -0.31130368 -0.4833673 -0.28463283
000320 36 04 6f be a0 2c 73 bd 85 1f 9a be 47 4b 4a 3f
       -0.2334145 -0.05936873 -0.30102172 0.79021114
000330 6b ca 4f 3e e2 1a ad 3e 45 33 ad 3e 15 af ba be
       0.2029206 0.33809572 0.33828178 -0.36461702
000340 6f 1c c1 bd e9 1f f3 3d bf 3d 96 bd 22 e6 00 3e
       -0.094292514 0.11871321 -0.07335996 0.12587789
000350 4d 25 c1 3e e3 6a 02 3d 9b e8 ee be 7a 72 70 be
       0.3772377 0.031840216 -0.4666184 -0.2348117
000360 68 f3 26 3e bd b1 e4 bd a7 25 80 be 2f 16 bc 3e
       0.1630379 -0.111667134 -0.25028726 0.36735675
000370 bf 1a 86 be d1 55 0e 3f 5e 26 29 3e 09 17 ea 3d
       -0.2619228 0.55599695 0.16518542 0.11430175
000380 9a 6f 54 3e 2f 22 04 bf 4f 94 d5 be 76 54 b1 be
       0.20745698 -0.5161466 -0.41714713 -0.3463475
000390 fe e5 10 3f 5e 7d eb 3c de db a8 be 88 0d 3b be
       0.5660094 0.028746303 -0.32980245 -0.1826688
0003a0 5e bf 0a 3f 09 cf 2c bf 22 a7 04 be 3c 8d cf 3c
       0.54198253 -0.6750341 -0.12954381 0.0253359
0003b0 18 4d c4 3d fb 47 8f 3e 47 61 33 bf d4 37 ad be
       0.09585017 0.27984604 -0.7007031 -0.33831656
0003c0 5e 48 8a be df aa 06 3f 19 5f 02 3f 0d 9c 96 3e
       -0.27008337 0.5260448 0.5092636 0.29415932
0003d0 75 0e 52 3d 0d f2 fc be 60 05 9b 3e 94 4e ae 3e
       0.05128332 -0.4940342 0.30277538 0.34044325
0003e0 31 d5 d1 3e 9e b0 cc 3d 95 b9 ad be 7c d9 9b be
       0.40982965 0.099946246 -0.3393065 -0.30439365
0003f0 f9 21 05 be c8 c9 1d bf a3 d1 87 bc e4 a1 0d bf
       -0.13001241 -0.6163602 -0.016579455 -0.5532515

dense1.bias f4 [128]
000000 a5 cf 36 3e 29 8c a2 be d3 58 1d 3f 76 98 9f 3e
       0.17852648 -0.3174756 0.6146366 0.31171006
000010 f8 8c 0d bb f9 45 60 be a7 79 42 bd c5 34 ad bb
       -0.0021598917 -0.21901692 -0.047479298 -0.0052858316
000020 38 b5 19 bf 5c 24 ba 3e 9b 77 cd 3e ba 25 b1 be
       -0.6004214 0.36355865 0.40130314 -0.34599096
000030 b2 42 41 3f 1b bc 11 3e 50 74 27 bf 69 63 68 3e
       0.75492394 0.14231913 -0.65411854 0.22694172
000040 1d 9f 4e 3e 5c ed f9 3e 04 cd ac bc 69 12 11 bf
       0.20177884 0.48813903 -0.021093853 -0.56668717
000050 6c 0d 16 bf 7c a9 3a 3f 29 0c 12 bf f3 44 51 be
       -0.5861423 0.7291486 -0.57049805 -0.20436458
000060 87 be 1b bf 51 5b b0 3d 3a 54 09 3f 94 0e 21 3f
       -0.60837597 0.08611167 0.53644145 0.6291287
000070 54 81 09 bf f7 75 ac 3e 57 8e 54 be 3c 42 27 bf
       -0.53712964 0.3368375 -0.20757423 -0.6533544
000080 a0 f3 27 3e ed 6e 15 bf c7 c4 a3 3e 0b 05 9a be
       0.1640153 -0.58372384 0.31986067 -0.30081972
000090 13 23 4d be f5 9d 13 bf 2a 7e eb 3e 05 47 23 3f
       -0.20032911 -0.576629 0.45994693 0.6378024
0000a0 15 6d 5f be a5 94 30 be 18 c8 e2 3e 73 79 3a 3f
       -0.21818955 -0.17244203 0.44293284 0.72841567
0000b0 cc 43 d2 be 23 68 95 3d b6 26 1b bf 89 6d bf 3e
       -0.4106735 0.07295253 -0.60605943 0.37388256
0000c0 26 9c 02 bf d6 92 17 be b0 53 b1 be 1a 71 f7 be
       -0.51019514 -0.14802107 -0.3463416 -0.48328477
0000d0 34 d9 e0 3e a6 e9 08 be dc c8 20 bf d0 b4 df 3e
       0.43915713 -0.1337038 -0.6280649 0.43692636
0000e0 b0 d7 1b 3f d1 94 55 3e df df 16 bf af 4e 02 bf
       0.6087599 0.2085755 -0.5893535 -0.5090131
0000f0 1b 38 fb be 21 e6 23 bf 4e 83 14 bf f8 33 cc 3c
       -0.49066243 -0.64023024 -0.58012855 0.024927124
000100 0a 1f 3b be 2a 70 85 3e b1 4f 61 3e a6 ed 1c be
       -0.18273559 0.26062137 0.22003056 -0.1532503
000110 0e 4a 5d 3e ca 3f d2 be fb 3b d1 3e 87 63 66 3e
       0.21610281 -0.41064292 0.40866074 0.22498904
000120 40 35 08 be cb 32 15 3f cf a3 aa be f0 61 05 be
       -0.13301563 0.5828063 -0.333281 -0.13025641
000130 44 26 29 bf 28 bf 07 bf df 3d 8c be 76 8a 20 bf
       -0.66074014 -0.53026056 -0.27390954 -0.62711275
000140 28 8a 0c bf 49 b3 dd be bd e3 a3 3d 9d bc c0 3e
       -0.5489831 -0.43300846 0.08002422 0.376439
000150 74 7d 23 3e ba e0 c6 be 64 9b b8 3e 74 db 92 be
       0.15965825 -0.38843328 0.36056054 -0.28683054
000160 46 36 1c bf e5 97 07 3f 1d b3 93 3e f4 e1 d5 be
       -0.61020315 0.5296615 0.2884759 -0.4177395
000170 43 45 c0 3e 82 a7 16 3d 13 cf 0a bd d9 fb 8b 3e
       0.37552842 0.03678084 -0.033888888 0.27340582
000180 97 f1 1a 3e 57 d9 26 3f 28 1b 11 be 7e 77 4b 3f
       0.15131222 0.65175384 -0.14170516 0.79479206
000190 74 b3 e8 be d9 a8 1e 3e 31 e2 e5 bd 8e 84 8d bd
       -0.45449412 0.15494098 -0.11224783 -0.069100484
0001a0 88 e2 28 3e 82 23 b7 be e1 8b 04 bf be 2e f9 3e
       0.16492665 -0.35769278 -0.5177594 0.48668474
0001b0 08 51 be 3e 5e 5f 1e 3f 1c 7b bb bd 44 80 f1 3d
       0.37171197 0.6186427 -0.091543406 0.11792043
0001c0 69 74 bc 3e ae da ec 3e 8e d1 81 be 19 72 0f bf
       0.36807564 0.4626059 -0.2535519 -0.56033474
0001d0 7c 00 98 3e c4 40 ac 3e b1 15 07 bf 2f af 16 3f
       0.2968787 0.33643162 -0.52767473 0.5886106
0001e0 4d 8d 15 3f 7a 44 d0 be 17 29 34 3d 84 c3 cf be
       0.5841873 -0.40677243 0.0439845 -0.40578854
0001f0 33 b1 eb be 10 bf e2 bd e2 fb f0 be 3b d2 2d bf
       -0.4603363 -0.110715985 -0.4706717 -0.6789891

dense2.weight f4 [64, 128]
000000 04 10 4d bc 92 75 51 3c be 63 26 3e 90 f6 da 3d
       -0.012516025 0.012784379 0.16248986 0.10691559
000010 85 dd 38 be ff df e2 bd 31 e4 06 3e 61 9c 86 bd
       -0.18053253 -0.1107788 0.13172986 -0.06572796
000020 8c c2 8c be 9d ab 57 3e 83 8d 05 3e 4c 35 9b 3d
       -0.27492177 0.21061559 0.13042264 0.07578525
000030 f9 db c9 3d 06 72 ec 3c e6 4c 99 be 71 2b a1 bd
       0.098564096 0.028862964 -0.2994148 -0.07869614
000040 af 4d b9 3d 6f d1 44 3e 66 79 2b bb 2e da 9f bd
       0.0904802 0.19220518 -0.0026164888 -0.07805286
000050 81 e0 60 be e9 d1 17 3e 2d 37 bb bd 0a 74 ef 3d
       -0.21960641 0.14826168 -0.09141383 0.116920546
000060 9d 4f 5e bb 98 96 1d bd ae 3e 5d 3e b9 9a 0c 3e
       -0.0033921965 -0.038473696 0.21605942 0.13730897
000070 48 bf 8c bd 72 ac a6 3d 23 2e c3 3d 0b 5c a4 bd
       -0.068724215 0.0813836 0.09530284 -0.08025368
000080 52 b0 55 bd 1e 4a 60 be 67 17 82 3d c7 fb 5a 3d
       -0.052170105 -0.21903273 0.0635212 0.05346277
000090 cd 79 0a bd e9 8d a3 bd 5a e4 a4 3c 44 b5 29 3d
       -0.033807565 -0.079860516 0.020128418 0.041432634
0000a0 a5 40 c8 3c d5 25 61 be 69 18 08 3e 3d 62 05 3e
       0.024444887 -0.21987088 0.13290562 0.13025756
0000b0 c5 95 c9 bd 60 2c b8 3d 63 9d fd 3c 3d 6d 1a 3e
       -0.098430194 0.08992839 0.030958837 0.15080734
0000c0 2b 4c 0c be 2b 51 d7 bd d1 f5 3c be 16 c8 fb 3c
       -0.13700931 -0.105135284 -0.18453147 0.030735057
0000d0 57 fe 4d bd 96 95 b3 bc fc c9 28 be da 13 96 3c
       -0.050291386 -0.021921914 -0.16483301 0.018320013
0000e0 7a 8d 26 3e bc 40 01 be 78 14 a1 be 53 54 ce 3d
       0.16264907 -0.1262235 -0.3146093 0.10074677
0000f0 d8 76 86 bd 17 c4 85 be 10 56 53 bd 73 20 ca bd
       -0.065656364 -0.26126167 -0.051595747 -0.098694704
000100 40 70 c8 bd 57 0e 9a 3d 6b 45 24 3c 4c e1 c4 3c
       -0.09787035 0.07522266 0.010026316 0.024033211
000110 29 14 ed bd 4b 07 9a bd 19 2e 8e 3d 4a 4b 8b 3c
       -0.11576111 -0.07520922 0.06942386 0.017003674
000120 cf 7d f9 3d 34 1b 2d 3e 15 39 a7 bd 46 ce dd ba
       0.12182199 0.16904908 -0.081651844 -0.0016922436
000130 73 23 0d be ff d5 9a 3c cf 8e 6c be 98 4c ac bd
       -0.13783054 0.01890087 -0.23101352 -0.084130466
000140 b0 c0 67 be b2 b6 0f be 29 1a 9e 3c d1 0b 90 3e
       -0.22632098 -0.14034536 0.019299584 0.28134015
000150 00 4c 50 be 60 f4 94 bd b6 7a 2a 3e ef d7 ba bd
       -0.20341492 -0.07273173 0.16648373 -0.09123217
000160 3f bc 70 3c e0 bd b2 bd 06 21 0c 3e 90 b9 5c 3d
       0.014693319 -0.08727622 0.13684472 0.053887904
000170 72 d6 cb bc 5d de 67 3d 62 ea c9 bd 56 92 46 bd
       -0.024882529 0.056608547 -0.09859158 -0.0484794
000180 27 3b eb 3c 91 dc 0a 3e 1a 7c 40 3e e8 aa 12 3e
       0.02871473 0.13560702 0.18797341 0.14323008
000190 48 8d 86 3d 4f d8 f1 3d 26 d3 16 3d ed 9d dc 3c
       0.06569916 0.11808836 0.03682246 0.026930774
0001a0 5d cd 87 bd f3 85 a2 be a3 53 45 bd 42 5a 84 bd
       -0.06630967 -0.3174282 -0.048175465 -0.06462528
0001b0 1a 24 71 3b 6c ab 3b 3d 91 10 71 3c b1 26 c2 ba
       0.00367952 0.045817778 0.014713422 -0.0014812556
0001c0 b3 b5 b5 3d 8c c5 2c bd a1 81 9e 3d 34 38 da 3d
       0.08872547 -0.042180583 0.077395685 0.10655251
0001d0 78 b3 d7 3b 98 51 88 3e 77 3a a0 bd ef 18 57 3e
       0.0065826736 0.2662475 -0.07823651 0.21005605
0001e0 11 8c dd 3e 2b 03 80 be 90 04 dd 3d 63 49 1c 3d
       0.43270925 -0.25002417 0.10791886 0.038155925
0001f0 e3 30 ee 3d 12 3b 6a bc 0f 24 4c be 0a 01 45 bd
       0.11630418 -0.01429631 -0.1993563 -0.048096694
000200 df ce d1 bd e3 f6 c9 3c df c4 cd 3d 9e 94 49 3e
       -0.10244536 0.024653858 0.10047316 0.19685599
000210 be 4d bb bd 10 82 87 bd 78 07 5f 3d 3a b8 a5 3d
       -0.091456875 -0.06616604 0.054450482 0.08091779
000220 fa 9a c0 3d b6 04 9f bd 3b c0 0a 3d 4e ca 14 bd
       0.094045594 -0.077645704 0.03387473 -0.036325745
000230 c1 d4 27 3d 96 9f f7 3c 28 46 85 3d 2d fe 39 3e
       0.040974382 0.030227464 0.06507522 0.18163367
000240 d9 03 40 3e b4 e8 be 3d c8 de 2b bb 0d 22 4a bc
       0.18751468 0.09321728 -0.0026225317 -0.01233722
000250 fe 0d b1 ba eb 5e 00 be 57 84 50 bd 0c 85 0b be
       -0.0013508198 -0.12536208 -0.05090746 -0.13624972
000260 2b 96 05 3e c1 f9 a3 3d fa 6d eb 3d d9 87 96 bd
       0.13045566 0.08006621 0.11495586 -0.0735013
000270 e8 27 74 3e d8 04 53 bc 88 a9 e5 3d 4b 3b b9 bd
       0.23843348 -0.012879573 0.11213976 -0.09044512
000280 7b 7d 8e 3d d1 8b 84 3c 0b d9 d1 3d d4 6f c0 bd
       0.06957527 0.01617995 0.10246476 -0.093963295
000290 fe 36 14 3e 92 88 9f bd 0c b5 8e bc 11 c0 d8 bd
       0.14474103 -0.077897206 -0.017420314 -0.10583509
0002a0 da 7b 01 3e 4a 5c a6 3d 77 09 85 bb f5 a4 b8 3c
       0.12644902 0.081230715 -0.004059966 0.022539595
0002b0 41 9c 84 3c 82 71 0d be 96 04 56 3d 87 67 96 be
       0.016187789 -0.13812831 0.052250467 -0.2937586
0002c0 56 26 2a bd 58 ca 25 3d 00 e0 18 3e 54 b1 20 bd
       -0.041540466 0.040476173 0.14929199 -0.039231613
0002d0 7e c6 9e bd 7d 8d f7 bd 78 c5 43 3c 96 a4 ae ba
       -0.07752703 -0.120875336 0.011948936 -0.0013324197
0002e0 c1 da 4a 3d c2 70 c5 bd 43 50 86 bd 09 44 5f bd
       0.049525026 -0.096406475 -0.065582775 -0.054508243
0002f0 49 19 b3 bd 09 c2 02 3e bd 4d d2 bc e1 9d d4 bd
       -0.08745057 0.12769331 -0.025671834 -0.103816755
000300 7e 2f 88 bc 78 cd f1 bd 14 92 99 3d 5b 82 e0 bd
       -0.016624209 -0.11806768 0.07498565 -0.10962363
000310 87 14 2d 3e cf d1 22 be 48 e1 ef 3d 61 64 28 bd
       0.16902362 -0.15900348 0.11712891 -0.041111354
000320 7b 34 77 bd de 09 0c be d6 b7 18 3e 80 f5 1c 3d
       -0.060352784 -0.13675639 0.14913878 0.038320065
000330 01 ed c3 3d 78 6a e5 bc 61 56 d5 3d 89 b7 35 3e
       0.09566689 -0.02800487 0.10416866 0.17745794
000340 15 8f 71 3d 50 21 87 3d 0b 6d 42 3e 0a 7d ad bd
       0.058974344 0.06598151 0.18986909 -0.08471115
000350 c7 4d c5 bc ab 83 bb 3d 5c 7c bb bd 9a 30 e0 3d
       -0.024084939 0.09155973 -0.09154579 0.1094677
000360 b6 50 ea 3d 22 c3 92 bd eb da 29 3d e7 2a 06 be
       0.11441176 -0.07166125 0.041468542 -0.13102303
000370 19 9b eb bd 7e 00 11 be 96 d6 14 3d 7d b6 25 3c
       -0.11504192 -0.14160344 0.036337458 0.010114309
000380 05 ce 98 3d 50 f9 2f 3d 49 17 10 bb 2c aa 86 3b
       0.0746117 0.042962372 -0.0021986535 0.0041096415
000390 ec e9 4c bd 51 50 8c 3b ca 1e 8a be 3f ac fb bd
       -0.050027773 0.0042820354 -0.26976615 -0.12288713
0003a0 a6 67 93 3d d5 59 1a 3e 90 72 43 bd fc 82 4d 3b
       0.07197504 0.1507333 -0.047716677 0.003135859
0003b0 e3 78 d2 bc 84 d3 0f 3c 81 15 0f 3e 78 40 e1 bd
       -0.025692409 0.008778457 0.13973047 -0.109986246
0003c0 03 15 52 bd 74 31 35 3d 20 56 e1 bd fa 06 9c 3d
       -0.05128957 0.044236615 -0.11002755 0.07618518
0003d0 e2 92 80 bd b4 89 6f bd 62 fd ca 3d 36 4e 86 3d
       -0.06278016 -0.058480933 0.0991161 0.06557886
0003e0 a0 e6 84 bc ad 98 01 3d b6 e0 22 3e 2f cc 12 be
       -0.016223252 0.031639744 0.15906033 -0.14335702
0003f0 f7 c9 b3 bd cf 18 70 be ed 4e bf ba 87 cb d9 3d
       -0.08778756 -0.23446964 -0.0014595665 0.10634523

dense2.bias f4 [64]
000000 e3 01 1e 3e f4 22 30 3c 4c 33 27 3e 88 85 d3 3d
       0.15430407 0.010750521 0.16328162 0.103282034
000010 41 45 d0 bc a3 1b 29 3d 2c 8b 2a b9 f3 9c 9b 3d
       -0.025423648 0.041286122 -0.00016264309 0.07598295
000020 2a 1d c2 bd ff ff 67 bd c1 97 6f bd b4 02 11 3e
       -0.09478219 -0.05664062 -0.058494333 0.14161187
000030 d8 bd 6b be cf 46 0c bd d3 ee b8 3d b4 23 d0 3d
       -0.23021638 -0.034247216 0.09029927 0.1016306
000040 1c c1 4c be 46 07 ec bd f1 54 84 bd 02 69 d9 bc
       -0.1999554 -0.11524825 -0.06461514 -0.02653933
000050 22 4f fa bc 9c 33 b1 3c 44 00 fb 3d 28 9b 08 3e
       -0.030555312 0.021631055 0.1225591 0.13340437
000060 a5 12 c9 bd 79 a9 00 3e 05 f6 46 bd d2 7d f6 3d
       -0.09818009 0.12564649 -0.048574466 0.12035717
000070 34 2b ad 3b fe 3d 69 be 3c ac 80 3d 4a 23 99 bd
       0.005284691 -0.22777554 0.06282851 -0.07477434
000080 30 48 93 3d ff a1 b7 bd da d5 73 bd 8f 45 f1 3d
       0.07191503 -0.08966445 -0.059530117 0.117808454
000090 1d 29 4e 3d d7 00 18 3e f3 de e9 3c 18 1c 09 bd
       0.050332177 0.1484407 0.028548693 -0.033474058
0000a0 77 79 df bc 13 3d e5 bd 15 03 73 3d bb f3 4c 3e
       -0.027279599 -0.111932896 0.05932911 0.20014851
0000b0 38 ff 4c bd 53 48 3f 3e 5c a5 e3 ba 9b 7f 95 3b
       -0.050048083 0.18679933 -0.0017368007 0.004562331
0000c0 0a c7 3f 3d d0 8a 59 3c 3b 84 29 bd 83 bc 53 bd
       0.046820678 0.013277724 -0.04138587 -0.05169345
0000d0 ad 20 1d be 3c 0a ca 3d d7 44 b1 bc c6 df fc 3d
       -0.15344496 0.09865233 -0.02163927 0.12347369
0000e0 bc c9 a8 bd 33 bd 6f 3d cd 0b 16 be 51 66 7c be
       -0.08241603 0.058530044 -0.14652939 -0.24648406
0000f0 4f bd 75 be cb 32 aa bd 37 5e 45 3d 45 2f a9 3d
       -0.23997997 -0.08310469 0.048185553 0.08260969

dense3.weight f4 [32, 64]
000000 bd 9a c0 3d d2 d9 51 3d 6b 1e 77 be 09 11 f4 bd
       0.09404514 0.05123312 -0.24132697 -0.11917312
000010 33 76 74 be fb 11 22 be e2 f7 0f 3e fc c0 a2 bd
       -0.23873214 -0.15827172 0.14059404 -0.07946965
000020 42 70 cc 3d 73 ac 08 bc b3 28 3d 3d d2 81 19 be
       0.09982349 -0.008341896 0.046181392 -0.14990929
000030 12 aa 8b 3e d3 83 c2 3c 0c 8a 10 3b 7b 0b d9 3d
       0.2727819 0.0237445 0.0022054939 0.10597893
000040 a3 5c 67 3e 62 21 26 3e 3a 3a 9d 3d 66 2c 3d 3c
       0.22593932 0.16223672 0.076771215 0.01154623
000050 5c 54 be 3d 0d 1d 43 be 78 c6 50 3b 47 2e 96 bc
       0.09293434 -0.1905405 0.0031856578 -0.018332614
000060 8d 18 ac 3d ac 25 4b be b4 b2 90 be ef 9e 8f be
       0.0840312 -0.1983859 -0.2826134 -0.28050944
000070 6a bb 0e 3e b1 5b 7c 3c d3 01 cd 3d 10 71 70 3e
       0.1393868 0.01540272 0.100101136 0.2348063
000080 23 f7 c7 3c 05 a3 34 3e 1d a8 3f be d0 8b 99 be
       0.024409836 0.17640312 -0.18716474 -0.2998948
000090 34 35 1d be 5c 08 e7 bd 23 1a 3a be 98 7f 2e 3d
       -0.15352327 -0.11280891 -0.18174033 0.04260215
0000a0 ab a7 0e bd 46 6b 60 3d d3 85 a8 3c 34 79 e3 3d
       -0.03482787 0.054789804 0.020571625 0.11107102
0000b0 81 1c 8d 3c e0 93 54 3d 55 8e 6d 3e b9 2f 5e 3d
       0.017225506 0.051898837 0.23198827 0.05424473
0000c0 e2 b6 57 be b1 8a 32 3d ad 33 ce be 6e ca d4 bc
       -0.21065858 0.043589298 -0.402738 -0.025975432
0000d0 b2 a9 3c 3c ef ad 37 be 19 61 98 be be 47 81 bb
       0.011515068 -0.17937444 -0.2976158 -0.00394532
0000e0 a0 1e 0b 3e ee c5 e4 bd 28 db ce 3c 0c ca 2e 3e
       0.13585901 -0.111705646 0.025250986 0.17069262
0000f0 07 d9 85 3e 33 91 86 3e 87 94 33 3e c2 8e a9 bd
       0.2614214 0.26282653 0.17537127 -0.08279182
000100 56 54 8a be 88 b2 7b be 62 5a 89 be ef 5a 86 bd
       -0.27017468 -0.24579823 -0.2682677 -0.06560313
000110 b4 fe 4c be f0 43 86 bd 96 1c f5 3d 22 43 bf 3d
       -0.20019037 -0.06555927 0.11968343 0.093389764
000120 44 c0 95 3e 42 ff f6 3d 49 b5 0b 3e 5c 57 75 be
       0.2924825 0.12060405 0.13643374 -0.23959106
000130 63 01 0f 3e 2d 32 08 3e 0f fc 62 be 79 91 b0 3d
       0.13965373 0.1330039 -0.22166465 0.08621497
000140 63 3b 8c 3e e6 f5 22 3c 6c 85 01 3e 2d 67 e7 3a
       0.27389058 0.009946322 0.12648553 0.001765465
000150 62 5e 8b 3c 75 1a 17 3d cd 87 e7 3d 3a e7 a4 bd
       0.017012779 0.036890466 0.11305199 -0.080519155
000160 fd a3 cc 3c 0b c6 f7 bd 2c c7 49 be a4 63 9e be
       0.02498054 -0.120983206 -0.19704884 -0.30935395
000170 4f d2 a3 3d c9 83 91 3e fa 6f e7 3d b0 a8 35 3e
       0.079990976 0.28420857 0.11300655 0.1774013
000180 f9 ef 89 be 16 73 ca bd 7f 60 16 be 6e 68 47 be
       -0.26940897 -0.09885232 -0.14685248 -0.1947343
000190 8f 57 15 be 28 43 94 be e2 8f 42 ba 93 18 a2 bd
       -0.14584182 -0.28957486 -0.0007421953 -0.079148434
0001a0 8c 44 89 be e3 97 15 bc f1 4c 45 3e 00 08 9b bd
       -0.2681011 -0.009130451 0.19267632 -0.07569885
0001b0 45 bf 87 bd e9 13 9c 3d 6b 22 09 be 69 f9 9a bd
       -0.06628279 0.07620985 -0.13392036 -0.075671025
0001c0 05 ac 78 be 4f 7c ab 3d 07 f0 92 bd 61 fe 73 3e
       -0.2428437 0.08373319 -0.07174688 0.23827507
0001d0 f1 8e 79 3e a5 c8 70 be 72 30 ae ba 32 f8 9e bd
       0.24370934 -0.2351404 -0.0013289584 -0.07762183
0001e0 b7 0e 20 3d f2 f1 bf bd 40 34 96 3e f6 1b 0c 3e
       0.039076533 -0.09372319 0.2933674 0.13682541
0001f0 94 9f 6c 3e 62 7c a3 3d ef a6 da bd c4 8a 92 3d
       0.23107749 0.079827085 -0.10676371 0.07155374
000200 c0 20 41 be 5a ca 35 be ab 9f 8a be 8f 99 29 be
       -0.1886015 -0.17752972 -0.27074942 -0.16562484
000210 22 43 51 be cd 16 1e be 15 c8 a1 3e 75 20 0b 3c
       -0.20435765 -0.15438385 0.31597963 0.008491625
000220 ec ae 4c 3e a1 09 2a be 81 5e 94 3d 36 96 af bc
       0.19988602 -0.16605236 0.07244588 -0.02143393
000230 cc 2f ad 3e f2 77 ab bc 68 98 5c be 75 e5 39 bd
       0.3382553 -0.020931218 -0.21542513 -0.045384843
000240 9a d9 c4 3d d8 b8 26 3e 08 ee 75 ba f3 b8 1c 3c
       0.09611817 0.1628145 -0.0009381478 0.00956558
000250 f0 fc 33 3c c3 2d 40 be 23 fa a8 3e d3 f7 ef bc
       0.010985598 -0.18767457 0.3300334 -0.029292976
000260 e6 09 8a 3e ea 54 b1 bc 3e f5 8c be 34 9c b5 be
       0.26960677 -0.021646935 -0.27530855 -0.35470736
000270 00 8f 08 bc 5a 48 3a 3e 87 ba c1 b9 95 f0 e0 3e
       -0.008334875 0.18191662 -0.00036950802 0.4393355
000280 87 e4 a7 bc f0 01 23 bd fc 09 4c be f6 d4 a5 bd
       -0.020494713 -0.03979677 -0.19925684 -0.0809726
000290 d2 4b 54 be f5 2a e9 bd db 07 e1 3c ae 92 e8 bc
       -0.20732048 -0.113851465 0.027469566 -0.028390255
0002a0 0f 03 9a bd 31 44 6f 3e f5 bb f5 3d 89 19 ce bc
       -0.07520115 0.23365857 0.119987406 -0.02515866
0002b0 3f 31 c1 3d 53 5f e6 bd d5 4d fd 3d e4 b6 41 bd
       0.09433221 -0.112486504 0.12368361 -0.04729356
0002c0 02 60 d8 be d6 4d 1e bc 9d 08 b5 bd 20 b8 2b 3e
       -0.42260748 -0.009662112 -0.088395335 0.16769457
0002d0 fb 83 63 3d b9 9d 8e bd 30 b8 3d 3d 62 24 ba bc
       0.05554579 -0.06963677 0.046318233 -0.022722427
0002e0 9c 29 b0 ba 0e 08 2e bd 67 f8 71 bc c3 d7 d1 3e
       -0.0013440135 -0.04248815 -0.014768696 0.40984926
0002f0 0a 1e ba 3e 94 97 bf 3e f0 45 37 bd 87 d0 a2 bc
       0.36351043 0.37420332 -0.044744432 -0.019874824
000300 fa 8b dd bd a7 87 75 bc 37 f8 5c 3d 3c 79 30 be
       -0.10817714 -0.014985955 0.053947654 -0.17233747
000310 55 23 2f 3e b6 62 a4 bd f1 aa 8d 3d ba b5 b2 bc
       0.17103322 -0.0802664 0.0691737 -0.02181517
000320 10 62 7f 3d 47 58 18 3e 69 9f f4 bd 94 66 7a 3e
       0.06234938 0.14877425 -0.119444676 0.24453193
000330 02 59 60 be 2c 0d cd 3d b4 75 ca be a6 b7 46 3d
       -0.21908954 0.10012278 -0.39542925 0.048514985
000340 be 30 86 bc 44 1f a4 be 0f 21 89 3e be 07 82 be
       -0.016380664 -0.32055104 0.26783034 -0.25396532
000350 6c b9 8e 3d d5 7f 55 bd 0b 58 cc bd eb b8 95 3d
       0.0696896 -0.052123863 -0.0997773 0.07310661
000360 54 22 2a 3e bc ff ba bc 55 e1 59 3d 93 33 e3 3c
       0.16614658 -0.022827022 0.05319341 0.027734553
000370 11 dc 67 3e fa 22 26 3e 43 1b 18 be 7d ba eb bd
       0.22642542 0.1622428 -0.1485415 -0.11510179
000380 0f 8d 34 3e 6a 0d 88 be 43 2b 90 be 0a 8c 3f 3c
       0.17631935 -0.26572734 -0.28158006 0.011691103
000390 d5 0f 4e 3e d2 81 06 be 3d bf a7 bd c4 a3 90 3b
       0.20123227 -0.1313546 -0.08190773 0.0044140536
0003a0 f1 c8 47 be cd fe 25 bd 36 63 a2 3e 37 b1 16 bd
       -0.19510247 -0.0405262 0.31716317 -0.0367901
0003b0 4e 06 67 be 0a f5 13 be f1 80 ea bc ac a0 f5 3b
       -0.22560999 -0.14448944 -0.028625937 0.00749596
0003c0 a0 37 11 3e 2a 30 1c 3d 50 1d 3d 3e c1 2f 19 bd
       0.14181376 0.03813187 0.18468213 -0.037399057
0003d0 d7 e7 8a 3e 50 73 b7 bc e7 72 6a 3e 36 f2 a8 3d
       0.27130005 -0.022393852 0.22895394 0.08249323
0003e0 8f 4b 9d bc e2 b8 c2 bd a2 f6 f3 3e b1 fc 0f be
       -0.019201068 -0.0950792 0.47649103 -0.14061238
0003f0 f3 22 e8 bd 88 31 f7 bd 39 62 5e be 94 7b 7c be
       -0.11334791 -0.12069994 -0.21717156 -0.24656516

dense3.bias f4 [32]
000000 12 da 0f be 88 a7 67 be 27 01 14 be 9a 80 16 bd
       -0.14048031 -0.22622502 -0.14453565 -0.036743738
000010 92 ba 06 3e 72 42 57 bd f4 eb ef bd 90 38 5c be
       0.13157108 -0.0525536 -0.11714926 -0.21505952
000020 58 9e a3 bd a4 e3 9d bd 96 38 64 3d bd c7 db bd
       -0.07989186 -0.07709435 0.055718027 -0.107314564
000030 8b 1d c2 3c 87 09 60 3d ca c8 93 3e ca 83 a3 3e
       0.023695728 0.054696586 0.28864127 0.31936485
000040 a8 65 db 3c e0 d4 9a be 3a 91 44 be db 74 e7 bd
       0.026781872 -0.30240536 -0.19196025 -0.11301585
000050 4f 69 57 3e 38 22 83 bd b1 a0 00 3e e1 d0 fe 3b
       0.21036266 -0.06403011 0.12561299 0.007776365
000060 03 7f 94 3e 34 79 10 3b a8 84 de bc b7 9e ba be
       0.29003152 0.00220449 -0.027162865 -0.36449215
000070 c9 48 8b 3d 1c 22 31 3e ac ff ca bc 29 1d 7c bc
       0.06800992 0.17298168 -0.024780117 -0.015387812

dense4.weight f4 [3, 32]
000000 ff 63 63 be b0 4b f3 be 33 76 12 bf df de 87 3d
       -0.22206114 -0.47518682 -0.5721161 0.06634306
000010 db ce 14 3f 23 36 d5 3e 72 0e 11 bf ee 6f 7b be
       0.58128136 0.41642866 -0.56662667 -0.24554417
000020 52 9b 0e 3f c0 69 fc be 57 cb f6 3e 3a b7 f2 be
       0.5570575 -0.4929943 0.4820201 -0.47405416
000030 2c 60 05 be 71 ce ab 3e 50 98 f4 3e 46 f6 f5 3e
       -0.13024968 0.3355594 0.47772455 0.48039454
000040 48 6b 34 3d cf 58 8f be a8 00 cd be 61 da 42 bf
       0.044047624 -0.27997443 -0.40039563 -0.7611447
000050 42 c8 12 3f fb 98 ec 3e 45 68 dc 3e 1d 4f fd bd
       0.5733682 0.46210465 0.430483 -0.12368605
000060 40 2f 06 3f b0 99 f2 be 22 f7 21 3f f1 fa f4 be
       0.5241585 -0.4738288 0.6326772 -0.47847703
000070 f6 23 e9 be e0 4d 1e 3f a1 dd 0e 3f 95 3c dd 3c
       -0.4553525 0.6183758 0.5580693 0.027006427
000080 b5 f8 1d be 54 43 31 bf f0 a8 e6 be 52 1a c3 bd
       -0.15426905 -0.6924336 -0.45050764 -0.095265046
000090 9b e4 0f 3f 68 fa 60 3e f9 47 13 bf 50 a2 8b be
       0.562082 0.21970522 -0.57531697 -0.27272272
0000a0 32 a2 e8 3e 94 fa 36 bf db e7 f0 3e 8c e5 17 bf
       0.45436245 -0.714761 0.47051892 -0.59334636
0000b0 4d 61 05 bb 61 84 1f 3f c5 56 09 3f 8a e1 26 3f
       -0.0020352185 0.6231137 0.53648025 0.65187895
0000c0 da 8b 08 bf 0d 02 25 bf b5 42 2a bf 43 4d 22 bf
       -0.53338397 -0.64456254 -0.66508037 -0.6339914
0000d0 44 ee f6 3e a0 49 6d 3e 09 51 eb 3e 22 88 20 3d
       0.48228657 0.23172617 0.45960262 0.039192326
0000e0 81 29 2a 3f 6a bc e8 be 55 47 2d 3f 71 6e 0e bf
       0.6646958 -0.4545625 0.6768697 -0.5563727
0000f0 9a c6 30 bf b5 f6 fe 3e 3d 2b 35 3f 5e 6b 82 be
       -0.6905304 0.49797598 0.707691 -0.2547254
000100 e3 b3 fc be 8b 5c 0b be d3 1e f8 be d0 0f c7 3e
       -0.49355993 -0.13609521 -0.48461017 0.3887925
000110 c7 99 00 3f cb 6c 3b 3f d0 4a 11 bf 47 4c 33 bf
       0.50234646 0.7321288 -0.5675478 -0.70038265
000120 65 f1 31 3f cf 5f 54 bd 1b 60 07 3f 4a f2 82 be
       0.69508964 -0.051849183 0.5288102 -0.25575477
000130 e1 11 08 bf 97 7f 8f 3e 42 6f 84 3e 2d e2 cc 3e
       -0.5315228 0.2802703 0.25866133 0.40016308
000140 20 fb be 3e dc 84 82 be 5c cb cd bd 8a 6e 96 be
       0.37300968 -0.2549199 -0.10048553 -0.2938121
000150 bb 12 04 bd 01 16 35 3f 0d bf 16 3f b6 0e 2d bf
       -0.032244425 0.707367 0.5888527 -0.6760057
000160 60 c2 3f 3e 63 48 90 be 14 d5 92 3e cb ac fa bd
       0.18726492 -0.28180227 0.2867819 -0.12239989
000170 4e 33 a6 3d dd 51 1c 3f 3b 66 7c 3e 9a b4 2a 3f
       0.08115254 0.61062413 0.24648373 0.66681826

dense4.bias f4 [3]
000000 9f da 7f 3e d7 c7 9e 3e 5d f6 46 3e
       0.24985741 0.3101184 0.19429918
